saved_models_maml/MLP_Std_standard_p97_best.pth (torch, 243026 bytes, 12 tensors)

input_proj.weight f4 [128, 2]
00000000: 1bbf 0a3f fd7f 113f a3a1 29be 5249 263f
00000010: a444 52be 372a a83d f51d a3be 7211 cd3e
00000020: 2ecd 183f f8a4 02bf 6057 1d3f 8f84 073e
00000030: f074 0e3f 3fd9 063e 1c92 ae3e 6777 ccbd
00000040: 4b00 fc3e ff60 333d 1b5c bebe 9e57 f13d
00000050: f2cd a6be 48d4 a9bd 0ed4 66be cd75 ee3e
00000060: 2ae4 0ebf 50e7 a6be 0e76 4cbe 13af d9be
00000070: e0a8 35bb 3235 37bf ef7a 233f 2ac5 19bf
00000080: 8bf8 173f 3b13 1a3e 5cb6 46be d92f e03e
00000090: f004 233e 4287 113f d34f 9e3d c55a 64be
000000a0: 3a8c 423e da5a 44be 173d b33e 7c00 2f3f
000000b0: 6c5f bb3e 6309 adbe fcfd d03e 728e 013e
000000c0: dbc1 c83e e7d6 d7be 4c31 33bf a1e0 8bbe
000000d0: b171 21bf 1ffb ff3e 958e 503e 19f6 953e
000000e0: 5fff 643e 5789 49bc 8ad3 123f ab64 07bf
000000f0: c85c 363d 1f1b f7be 2895 453e 70b2 7cbe
00000100: d5f7 263e 4d30 3dbe 7c47 093f 4e09 f5be
00000110: 4ceb d7be a3ee d7be 69b2 363f bce6 b03e
00000120: 9c2f 2e3f 1664 15bf 7b8c 33bf 7b9f 0dbf
00000130: 3783 ecbe 8c45 833e eb7d f33e ef62 273f
00000140: 49f7 babe 58ce f6be 7d03 b43e f637 92be
00000150: daba db3e f2d2 2bbe 4d1a cf3e 6fa5 0cbf
00000160: b034 9abe 6e83 883e 4e13 193e 1f9c 38be
00000170: 2a88 053f ddc9 0a3f 3945 03bf eb47 c1be
00000180: a5c0 253f c553 74be 4343 acbe 871e 41bf
00000190: 2a54 cfbe 8ee0 343e 91dd 15be 25fd f6be
000001a0: 2ce0 873c 4a4d f7be 1b20 2dbf ba2e fdbe
000001b0: b964 30bf 00f1 02bf e386 223f 1a1a f23d
000001c0: a721 5f3e 7ad5 28bf 2d75 00bf e93f 8ebe
000001d0: 87bd 9e3c 6b92 2dbf dddb cfbe eceb 02bf
000001e0: 23e1 06bd 4f31 96be 1824 9ebd 2d07 00bf
000001f0: 6880 f8be c936 d3be 50fb d0be 37af 0dbf
00000200: 7dc7 173f 0cb4 0fbe fec0 2f3f 323f 9a3e
00000210: fbef 2bbf 4fb9 db3e fd66 7ebe 2fc1 9cbe
00000220: 4142 16bf 59f6 33bf 8e2a 4f3e 962b 1ebe
00000230: 35f3 8c3e 538e 14bf df64 063f bfe0 04bf
00000240: c60e fabd e13c 173e 012a ef3e 34de 1e3f
00000250: 6da7 113f dc49 0ebf 4e38 173e 1d2e 98be
00000260: 1db2 9ebd be7d 07bf 0ee2 243f f6db 04bf
00000270: 3372 c13e 5bf8 7f3e 114b 6b3e 1ebc c3be
00000280: 7fe7 373f f7da 843e 0841 1d3d 0dd2 2bbf
00000290: cbfa 973e c740 d9bd f094 60be b07a 1f3f
000002a0: cb1f 253e 1a1a bebe eb3d b7be ba50 0abd
000002b0: fc25 ca3e b806 39be f791 cebe 83f4 77be
000002c0: 283c 07bf 601d 813e c21d 0c3f 3d6b 2abf
000002d0: 3670 da3d 6736 a13e e74b 033e 4fee 80be
000002e0: 97f6 bc3e 8f41 be3e 2b3c 833e 7def 04be
000002f0: ae65 57be c796 313d 6102 1fbe 11be 52be
00000300: 6f67 ea3e 9b13 1f3f 21b6 05be 8700 5cbe
00000310: 1e0e 293c fcee 2cbd 8620 603e 33b6 623e
00000320: 9c62 32bf 7658 9ebe 6af4 273f 7d66 b13e
00000330: 2e0e 10bd 7346 dabe ff44 01bf d0ba 36bf
00000340: a205 6cbe 2186 743e fcd7 e63e fc26 a73e
00000350: ce02 20bf 6ab7 d9be 3844 b1bd ce4c 293f
00000360: 5388 2e3d dbd3 6abe a00e 853e 9216 96be
00000370: ea51 ddbe 8d57 ee3e a09e a4be 4727 11be
00000380: 2d14 34bf 464d f23e a6ee 1b3f c149 a43e
00000390: bb90 0abf 01be 3dbf a619 1fbf 8f9b f23e
000003a0: b14e 133f 19e0 2c3f 544a d83e 9a01 893e
000003b0: b3e6 e2bb 92aa 09bf a317 1bbf f250 29bf
000003c0: ca5d 953e 3961 abbe 27cd 56be e49d fabe
000003d0: 981d 30be d971 0bbf ce8f ecbe 2d2f 703e
000003e0: 5ed3 62be a69a cc3e 554a 68be 34ca 04bf
000003f0: 6f93 2fbe 27b9 bfbe a6aa a2be 94ff 42bf
0.54197854 0.5683592 -0.16565566 0.6495563 -0.20533997 0.08211177 -0.31858793 0.40052372
0.5968808 -0.5103297 0.6146145 0.13234161 0.5564718 0.1316881 0.34095848 -0.09983712
0.49218974 0.043793675 -0.37179646 0.1178429 -0.32579 -0.082924426 -0.2254183 0.4657425
-0.558169 -0.32598352 -0.1996691 -0.42516384 -0.0027719066 -0.71565545 0.63859457 -0.60066473
0.5936362 0.15046398 -0.19405502 0.43786505 0.15919852 0.5684701 0.07730069 -0.22300251
0.18998805 -0.19175282 0.35007545 0.68360114 0.3659624 -0.33796224 0.40818775 0.12651995
0.392104 -0.42156145 -0.69997096 -0.27319816 -0.63064104 0.49996278 0.2036689 0.2928932
0.22363041 -0.012300811 0.57354033 -0.5288798 0.044522077 -0.4826288 0.1929518 -0.24677444
0.16305478 -0.18475457 0.536247 -0.4785866 -0.42171705 -0.42174253 0.7136598 0.34551036
0.68041396 -0.58355844 -0.7013623 -0.5532147 -0.4619386 0.25638998 0.47557005 0.65385336
-0.3651679 -0.48204303 0.3515891 -0.2855832 0.42915994 -0.16779688 0.40449753 -0.5493993
-0.30118322 0.26662773 0.1494877 -0.18028305 0.52160895 0.5421427 -0.512775 -0.37750182
0.6474708 -0.2386008 -0.33645067 -0.75437206 -0.404939 0.17663786 -0.14635302 -0.4824001
0.016586386 -0.48301154 -0.67627114 -0.49449712 -0.6890369 -0.51148987 0.6348707 0.11821385
0.21790181 -0.6595074 -0.50178796 -0.27783135 0.019377483 -0.6780154 -0.4059743 -0.5114124
-0.03292955 -0.29334494 -0.07721728 -0.5001095 -0.48535466 -0.41252735 -0.40816736 -0.5534548
0.5928877 -0.14033526 0.6865386 0.3012634 -0.67163056 0.42914817 -0.24843974 -0.30616137
-0.58694845 -0.7029777 0.20231077 -0.15446314 0.27529302 -0.5802967 0.5249767 -0.51905435
-0.12209849 0.14769317 0.46711734 0.62057805 0.56896096 -0.5558145 0.14767572 -0.29722682
-0.07748816 -0.5292624 0.6440743 -0.51898134 0.3778244 0.24997084 0.22977854 -0.3822946
0.7183761 0.25948307 0.038392097 -0.6711739 0.29683527 -0.106080584 -0.21931815 0.6229658
0.1612541 -0.3712929 -0.35789427 -0.033768393 0.39482105 -0.18068969 -0.40345737 -0.24214368
-0.52826166 0.25217724 0.54732907 -0.6656988 0.10665934 0.31486818 0.12821923 -0.25181815
0.36906883 0.37159392 0.25631842 -0.12981983 -0.21034881 0.043356683 -0.15528251 -0.20580317
0.4578204 0.6213929 -0.13057758 -0.21484576 0.010318307 -0.0422201 0.21887407 0.22139816
-0.69681716 -0.30926865 0.6560732 0.34648505 -0.035169773 -0.42631873 -0.50495905 -0.71378803
-0.23049024 0.23879291 0.45086658 0.3264693 -0.6250428 -0.42522746 -0.0865559 0.6613282
0.042610478 -0.22932379 0.2598772 -0.29314095 -0.43226558 0.4655117 -0.3215227 -0.1417514
-0.70343286 0.4732458 0.60911024 0.3208752 -0.5412709 -0.7411805 -0.6214851 0.47384307
0.5754195 0.67529446 0.42244208 0.26759034 -0.006924474 -0.53775895 -0.6058294 -0.6613914
0.29173118 -0.33472613 -0.20976697 -0.48948586 -0.17198789 -0.5447059 -0.46203464 0.23455496
-0.22150943 0.39961737 -0.22684605 -0.5187104 -0.17146085 -0.37445948 -0.3177082 -0.7617123

input_proj.bias f4 [128]
00000000: 4eb3 b73e 8f0d fcbe 911b a93e 929d 983e
00000010: 2698 ef3e ecd9 0abf 59c5 f53e 8427 abbe
00000020: 6f11 6f3e 0838 283f 673c ccbd 15c0 3aba
00000030: 6ab4 26be fa25 17bf 831b b13e 7db3 33bf
00000040: c66f cd3e f579 013f d050 233f 87cb 2abe
00000050: abbb 14bf 6743 1c3e 2a07 b43e 8d2b 34bf
00000060: 3f50 fbbd ac06 d9be e30e 12be 4833 b2be
00000070: 5bfd 93be 6207 48be fe05 2cbf ead6 0c3f
00000080: bb4f 103f 0593 28be 39eb a4bd 6890 6abe
00000090: ca78 23bf 7028 30bf 6dea 873e dce5 97be
000000a0: 0fbf e8be 85ef a6bd 3620 71be 0a41 6abe
000000b0: 14f8 3d3d f795 19be af50 62be a458 adbe
000000c0: 8951 13bf dc56 123f 1ae2 90be bb5b 823e
000000d0: eb3a 7bbe 59f7 093e 48b1 253f b6b1 993e
000000e0: 0ddf 1cbf 3a63 9d3e 2aab 263f a902 5e3e
000000f0: c9f7 da3e 45a5 2a3f 38e6 ddbd 9327 3b3e
00000100: 2ca1 fbbe 211c c3bd a6fe 023f e988 a13e
00000110: 1618 e5be 1d28 11bf 7167 f7be d9a4 32bf
00000120: 7cae 0bbf fa33 47be 3730 e13e 894e f23d
00000130: 2eaf 09bf d137 11bf 8932 a23e 50a6 06bf
00000140: 876f 8abd 2a84 a43e 4d8e a7be 2282 6bbd
00000150: a43a 85bd fd4d 2bbe b490 b7be 1a5e 21bf
00000160: 0854 12bf 9bdb c1be 3774 273f b8de aebe
00000170: 7d1e f3be 49cf 093e 5c65 323e dcb0 b73e
00000180: ae71 fd3e d82e bf3e 197b 33bf 9bce 743d
00000190: d456 e03e 6436 cfbd 8357 d5be d7b0 293f
000001a0: 9c69 87be ee1f cebe eb32 23bf 27c2 a33c
000001b0: 608c 943e ef03 293e 4139 153e 6548 09bf
000001c0: 390d 29bf 42e0 f1ba 6590 263f f08b c13e
000001d0: b1b3 9dbe 1f37 b6bd c971 05bf eba7 aebe
000001e0: 8646 d53d 8e94 b63e d280 0e3f e831 26bf
000001f0: b306 e13e d057 ffbe c7b8 853e 56ed 133f
0.35878986 -0.49229094 0.33028844 0.29807717 0.46795768 -0.5423877 0.48002127 -0.33428586
0.23346494 0.65710497 -0.09972458 -0.00071239594 -0.1627976 -0.5904232 0.34591302 -0.7019575
0.4012434 0.50576717 0.63795185 -0.16679202 -0.5809886 0.15260087 0.35161716 -0.70378953
-0.12271165 -0.42387903 -0.14263491 -0.3480475 -0.28904232 -0.19534066 -0.67196643 0.5501543
0.5637166 -0.16462334 -0.08052678 -0.22906649 -0.63856184 -0.688117 0.2654604 -0.29667556
-0.45458266 -0.081511535 -0.23547444 -0.22876373 0.046379164 -0.14998613 -0.22101091 -0.3385669
-0.5754629 0.57163787 -0.28297502 0.2546061 -0.24534194 0.13473262 0.64723635 0.30018395
-0.6127785 0.30739766 0.65104926 0.21680702 0.4276717 0.6665843 -0.10834926 0.18276815
-0.49146402 -0.095268495 0.5116981 0.31549767 -0.4474494 -0.56701833 -0.48321107 -0.6978279
-0.5456312 -0.19453421 0.43982098 0.11831386 -0.5378293 -0.56725794 0.3167918 -0.5259752
-0.067595534 0.32132083 -0.32725754 -0.05749715 -0.065053254 -0.16728969 -0.35852587 -0.6303421
-0.5715947 -0.37862858 0.65411705 -0.34154296 -0.47484198 0.1345798 0.17421478 0.3587712
0.49500793 0.37340426 -0.7010971 0.059767347 0.43816245 -0.10117796 -0.4166833 0.6628546
-0.2644776 -0.40258735 -0.6374957 0.01999004 0.29013348 0.16505407 0.14572622 -0.5362609
-0.660358 -0.0018453675 0.6506408 0.37802076 -0.30801156 -0.08897232 -0.5212675 -0.34112486
0.10413842 0.35660213 0.55665314 -0.649199 0.43950424 -0.49871683 0.26117536 0.5778402

layers.0.weight f4 [128, 128]
00000000: 2daf a23a 6ab1 a43d e03c 9abd b448 0abd
00000010: fd28 533d d0c0 9dbc 0338 94bc 0be5 16bd
00000020: 348e 793d c494 313d d707 e83c dc73 4bbd
00000030: 3ff1 92bd 20a2 1c3c 5f87 d63c 5528 27bd
00000040: 5c98 cabc 5d82 743d 19b8 e63b 39ad 823b
00000050: 2232 b2bc e3ed a3bd 6c34 aabd 580f 2dbd
00000060: 3108 38bd c296 e13c 65c9 d2bc 35a3 0dbd
00000070: d896 ac3d 7336 fc3c 920c 813d 7d44 2fbd
00000080: 7be1 13bd 5910 053d a537 71bd 88aa 6cbd
00000090: 0be4 8bbb 656b 04bd ddb3 87bd 19bf 563d
000000a0: ac91 913d abec 6a3c 9824 7cbc 5fac a7bd
000000b0: 56de 03bd f556 b83c 61b6 2a3d 7612 37bc
000000c0: 0d22 0fbd c5bc 493d eb29 90bd a0d0 643d
000000d0: 6474 0cbd 1351 b13a d416 8fbc a092 2f3c
000000e0: a5d0 dabc c19f 833d 7697 16bb b84d 8d3d
000000f0: eb0b ae3d c961 30bd 250e 84bd 703b 913d
00000100: 6ad9 8d3d 8237 8abd ede4 dfbb 0782 b2bd
00000110: a92e 94bd a2d9 8b3c 2fa1 c03c 9d7d 993c
00000120: 7c11 c5bc 2101 a73d df0d 4f3c 2ea2 55bd
00000130: 99f8 a3bb 3ae2 ad3c 0b91 fd3c 98fd 7fbd
00000140: 36b0 073d 7bf5 38bd 916a 96bd 8bbf 45bd
00000150: a593 ae3d ecbe 9a3d 9919 a23d 5085 543d
00000160: 40c0 883d cbd5 41bc 2a34 47bd 1ee5 343d
00000170: 299a 3bbd d953 74bd f838 e7bc 4ff4 973c
00000180: 5460 3a3d 7c9e 0cbd 7115 55bd 9458 433c
00000190: ca65 55bd 9cb5 6bbd 9eb6 3c3d 8744 73bc
000001a0: aa69 a53d ab17 b03d 5693 d83c 6132 f93c
000001b0: 45be a63c 5e6f b53a daa7 d2bb 953a 9f3a
000001c0: b731 073d 764e a83d b6a6 bbbc 1a0a 19bd
000001d0: 9958 afbc e0e8 2ebd 0a3e 763c 211f 873d
000001e0: 938d 8d3d a038 263d c437 85bd d14e 42bd
000001f0: 8b16 9fbc 0677 85bc 0237 ee3b ac2b a6bd
00000200: 7adf 2b3d 3818 8abd 88f8 6abd 1441 8bbd
00000210: c1de 8e3d 176a abbd 49eb 923d daba 42bb
00000220: 6580 79ba a285 543d 77d9 05bc 369b 933d
00000230: 33e1 823d ae29 9dbd 677c 80bb cbb0 883c
00000240: 0089 d13c aaab 833c d6b1 fe3c 302a 2ebd
00000250: 4f47 39bc 1671 dd3d b44c 5d3d a59e 59bb
00000260: 5f5a c2bd a8e0 7d3b 939d aebb 1134 933d
00000270: 03ca 5bbd 7803 a5bc 22b4 a0bc 95d0 203c
00000280: c6b0 a23d 344c 623b 06ae 513d cbfb 20bd
00000290: 9123 923d a80f fabc 0ad7 bcbc 8a7c 23be
000002a0: ca93 c5bc 5fa4 403c 0130 9ebc b78d 75bd
000002b0: 8da0 0e3d 3b07 5e3c 47a6 e7bb 16d7 b33d
000002c0: fc2c 773d a566 613d c704 9b3b e097 27be
000002d0: e0fa 7dbd 65be 65bd 599c d7bd 1790 0dbd
000002e0: fca3 a6bd 05b9 0bbe ddca 8cbd a7fc 61be
000002f0: 9ee0 84bd 7728 a13c ccfa 963d ab5a 2dbe
00000300: 659e d2bc 4544 bf3d 7f1b 33bd 257b 81bd
00000310: 0e10 5f3d f2b8 9dbd a012 313c c2e8 9f3d
00000320: c756 783c f48c 853d 3e28 74bd 52ce cbbc
00000330: 8240 9f3b a1b6 b13c b3dc 313d f14a 9d3d
00000340: 4d63 d4bc e5d5 f6bc 3de3 34bd c646 32bd
00000350: 940e 89bd 0357 9fbd a0aa 7c3d beb7 273c
00000360: a81f 43bd 9f31 3d3d 468b a2bd 4909 0cbd
00000370: 5710 8dbc 2d96 9ebd 8a5c 80bd 61cc eabc
00000380: bc8d a03d 4697 983d 025a 663d 710f f8bc
00000390: 0627 bfbd dbe2 ee3d 340f 003d bef3 ccbc
000003a0: 59fb 433c 127c 91bd 45c2 f1bc e5f7 f53d
000003b0: 3bce f7bc b963 86bc da10 7dbd ea86 4abd
000003c0: de90 ecba a144 ccbc 693d 36bd 82e5 1f3d
000003d0: 298c 97be a7d5 963d 0762 6fbd 80b1 30bd
000003e0: 9a00 873c 9856 393d 3d75 31bd 52a4 14bd
000003f0: 718f 9abd 22b0 3abd 1a70 e6bd e48a 47bd
0.0012411826 0.080416515 -0.07531142 -0.03376074 0.05155276 -0.01925698 -0.018093115 -0.036839526
0.06092663 0.043354765 0.02832405 -0.04967104 -0.0717492 0.009560138 0.026187597 -0.040809948
-0.024730854 0.059694637 0.007040989 0.003987935 -0.02175242 -0.08004358 -0.0831078 -0.04225096
-0.044929687 0.027537707 -0.025730798 -0.034579474 0.08427209 0.030787682 0.06301226 -0.042789925
-0.036103707 0.032486293 -0.058890957 -0.05777982 -0.004269128 -0.032328982 -0.06626103 0.05242834
0.07107863 0.014338653 -0.015389584 -0.08187174 -0.032194458 0.022502402 0.041677836 -0.011173835
-0.034944583 0.04925229 -0.07039245 0.055863023 -0.034290686 0.001352819 -0.01746694 0.0107161105
-0.026710818 0.06426955 -0.0022978461 0.06899589 0.08498367 -0.043062005 -0.0644801 0.07091415
0.06926234 -0.067488685 -0.00683271 -0.08716207 -0.07235462 0.017071549 0.023514358 0.018736655
-0.024056189 0.08154512 0.0126375845 -0.05215662 -0.0050040004 0.021226037 0.030952951 -0.062497705
0.033127032 -0.045155983 -0.07344545 -0.048278373 0.08524255 0.07555947 0.079150386 0.05188495
0.06677294 -0.011830757 -0.048633732 0.044163816 -0.045801315 -0.059650276 -0.028225407 0.018549113
0.045502022 -0.03433083 -0.0520224 0.011922974 -0.052099027 -0.057546243 0.046072595 -0.014847881
0.080767944 0.08598264 0.026437443 0.03041953 0.0203544 0.0013842394 -0.006428701 0.0012148196
0.033006396 0.0821809 -0.022906642 -0.03736315 -0.021404551 -0.042702556 0.01502944 0.06597734
0.06911769 0.040581346 -0.06504777 -0.047438446 -0.019419929 -0.016292106 0.007269741 -0.081137985
0.04196117 -0.067429006 -0.057365924 -0.06799522 0.06976081 -0.083698444 0.07173783 -0.0029713423
-0.00095177285 0.051885255 -0.008169523 0.072073385 0.063906096 -0.076739654 -0.00392108 0.016685864
0.025578022 0.016073067 0.031090658 -0.042520702 -0.011308505 0.10812585 0.054028228 -0.0033206132
-0.09489893 0.0038738642 -0.005328843 0.07187665 -0.05365945 -0.020143256 -0.019617144 0.009815355
0.07943873 0.0034530284 0.051191352 -0.03930263 0.0713569 -0.030525044 -0.023051757 -0.15965477
-0.024118323 0.011757939 -0.01931 -0.059949603 0.034821082 0.013551529 -0.0070693824 0.08781259
0.060345635 0.05502953 0.004730794 -0.1636653 -0.06200683 -0.056089777 -0.10527868 -0.034561243
-0.08136746 -0.13644798 -0.068746306 -0.22069035 -0.06488155 0.019672615 0.073720545 -0.16929118
-0.025710294 0.09339193 -0.043727394 -0.06322316 0.05445867 -0.07701291 0.010807663 0.07808067
0.015157408 0.06521025 -0.05960869 -0.024878655 0.004859985 0.02169353 0.043423366 0.076803096
-0.025926257 -0.03013129 -0.044162024 -0.043524526 -0.06692234 -0.07780268 0.06168616 0.010236679
-0.04763761 0.0461899 -0.079367206 -0.034188543 -0.017219706 -0.077434875 -0.062676504 -0.028661909
0.07839534 0.07450728 0.056238182 -0.0302808 -0.09333615 0.11664363 0.0312645 -0.02501857
0.011961781 -0.07103743 -0.02951158 0.12010173 -0.030249706 -0.016404973 -0.06178365 -0.04944507
-0.0018048545 -0.024935069 -0.04449216 0.039037235 -0.2959912 0.0736497 -0.058443096 -0.043138027
0.016479779 0.045248598 -0.043324698 -0.03628952 -0.075468905 -0.04557813 -0.112518504 -0.04871644

layers.0.bias f4 [128]
00000000: 743f a9bd a15e a33d 8ac6 703d f4a2 203d
00000010: 57ce 143d bdb2 a23d a26d 11bd b24f 633c
00000020: ef34 40bd e0c6 d8bc 7366 94bd 0573 473d
00000030: 5b64 82bd 6085 64bd 66e6 a03d 3a79 54bd
00000040: 0769 0a3c 9b22 a6bd 763e 52bd e79f 8c3d
00000050: b3bf 093d b06b 22bc 1480 34bd b197 773d
00000060: 2563 aa3d 2b74 b03c c85e 5fbd 588e 473b
00000070: b884 143d 7a73 d33c 4632 8c3d 6704 a33d
00000080: 0496 353d 1463 8bbd d385 1abb e5f0 c23a
00000090: 76df 1ebd efe3 023c c93f 4a3d 5a48 36bd
000000a0: 1862 f1bc d3b1 89bd d1c0 62bc 0d1d 403d
000000b0: f192 a43d 15dd 973b ccc0 373d 04c7 ccbd
000000c0: 8de7 3cbc 9f27 f1bc 8eb8 26bd c893 a73d
000000d0: 3ee0 e93c 44da 96bd d462 a4bd 504b 71bd
000000e0: 65ac b13c 1ac3 2b3d f7c7 4f3d 69d6 6e3d
000000f0: 662b 8ebd cb28 f43b 29ea 3cbd de39 48bd
00000100: 2467 d5bb a5b9 8bbc 8d0c 9abd f4e9 b9bc
00000110: 4591 013d e7ee 7f3d 3aae c3bc 9e02 3b3d
00000120: acc6 10bd 7428 85bd 10f2 8c3d 7224 abbc
00000130: 303d a8bc 1802 75bc fe27 a33d 3993 37bd
00000140: 6664 dbbc d1c6 e9bb 6509 6dbd 4a7b 013d
00000150: 9967 983d ad6e 183d 8cdd 0abd d903 ccbc
00000160: 113b c4bd d2b2 8ebd 857f c6bc 57c5 283d
00000170: c301 ac3d 2df7 cabb dbf1 0abc 7fb4 773d
00000180: 3b87 63bc 3cdb 85bd 1e4c 0c3d 382a 3dbd
00000190: 50ea 80bd c5d4 3b3b 1adf 70bd 3c32 77bd
000001a0: 7190 47bd 2421 32bc 5144 c03c 9401 16bd
000001b0: 8cb1 b7bd 756c 24bd b75f a83d 7de1 e2bc
000001c0: 32fe 8ebd 340c 1fbd 7de0 9b3d 62f7 663c
000001d0: d587 acbc f217 b13d 653a a9bb b1c5 203c
000001e0: a767 b23d 394a 73bc a584 cdbc 6825 633d
000001f0: 420a c23c bb49 8bbd 061c 533d 468a 3dbd
-0.08264056 0.079770334 0.05878309 0.039217904 0.036329594 0.07944248 -0.035504945 0.013873981
-0.04692548 -0.026462018 -0.07246103 0.048693676 -0.063667975 -0.05579126 0.07856445 -0.051873423
0.008447892 -0.08112069 -0.0513291 0.068664365 0.033630084 -0.00991337 -0.044067457 0.0604474
0.083196916 0.021539768 -0.05453375 0.0030449834 0.036259383 0.0258119 0.068455264 0.07959824
0.04433252 -0.06806007 -0.00235783 0.0014872818 -0.038787328 0.007988914 0.049377237 -0.044502594
-0.02946572 -0.067233704 -0.013839916 0.046902705 0.08035839 0.0046345093 0.0448616 -0.09998897
-0.011529815 -0.029437838 -0.04070335 0.08182484 0.02854931 -0.073658496 -0.080266625 -0.058909714
0.02168865 0.04193411 0.05072781 0.058309946 -0.06941871 0.007451152 -0.04612175 -0.04888331
-0.0065125395 -0.017056296 -0.07521925 -0.022694565 0.03163268 0.062483694 -0.023886789 0.045656793
-0.03534572 -0.065018564 0.06882107 -0.020891402 -0.020536989 -0.0149541125 0.07966612 -0.044818137
-0.026781272 -0.0071342965 -0.057870287 0.03161172 0.07441635 0.037214924 -0.03390269 -0.024904178
-0.095815785 -0.06967701 -0.024230728 0.041203823 0.083987735 -0.0061940164 -0.008480514 0.06047487
-0.013887222 -0.06535956 0.03425228 -0.04618284 -0.062946916 0.0028660756 -0.058806516 -0.06035064
-0.048721734 -0.010872159 0.023470076 -0.0366226 -0.08969411 -0.040142495 0.08221381 -0.027695412
-0.06982078 -0.038829997 0.07611177 0.014097067 -0.021060864 0.08647145 -0.005164432 0.009812758
0.08711176 -0.014849239 -0.025087664 0.055455595 0.023686532 -0.06801172 0.051540397 -0.046274446

layers.2.weight f4 [128]
00000000: ad12 7f3f b15c 883f 6258 7f3f 4c6f 803f
00000010: e91d 773f 02d6 7a3f fef6 863f 3b5e 7c3f
00000020: e659 843f ffa3 753f 0d10 7d3f aaa4 853f
00000030: 0150 7f3f 7c0d 7d3f edbb 7c3f 4eea 7e3f
00000040: da7b 793f 2f87 783f 40d3 7f3f f034 7b3f
00000050: 3af0 793f 0945 7f3f 8ac7 7f3f ca45 813f
00000060: 45cb 7e3f 1b70 793f b04d 6f3f 80c2 7c3f
00000070: f4e5 7c3f 47f0 7a3f 11d4 7c3f 8348 803f
00000080: ffe4 723f d4cb 7c3f f62c 863f d252 853f
00000090: 7e7f 7c3f defd 7d3f d82a 773f df15 7a3f
000000a0: d109 803f fb26 7f3f 415d 7e3f b649 803f
000000b0: e9cc 7f3f e033 7f3f 5e87 7f3f e06c 833f
000000c0: ad94 7a3f af36 803f b607 7d3f 0b09 803f
000000d0: e509 833f 4b9b 7e3f 1ea1 7a3f 9385 7c3f
000000e0: 6a04 7d3f e4c2 803f 07fb 703f 14ff 943f
000000f0: 8c61 803f e745 7e3f 8472 783f 687b 7f3f
00000100: b265 7f3f 14e8 7c3f 9618 823f 1d32 7c3f
00000110: 3fbd 7c3f 40e7 793f a9e9 803f 71b2 783f
00000120: 97e2 7f3f f6cd 7c3f 3f80 903f c78b 813f
00000130: f905 803f 43db 7a3f 2fad 7b3f 9735 7c3f
00000140: 7b05 7d3f 193b 7d3f 048e 813f 84f7 7d3f
00000150: 7919 803f c349 7d3f 1390 803f f996 783f
00000160: 1912 9e3f ab58 773f 95dc 7f3f 8d55 8a3f
00000170: b9c4 843f b591 7f3f 4938 7e3f de14 753f
00000180: 4973 7b3f 0301 7c3f 22eb 843f 4825 7b3f
00000190: 1d6d 7c3f 4f47 803f d1ca 7a3f 15f2 943f
000001a0: 3d52 7f3f 149c 803f e441 883f 9767 7f3f
000001b0: 556e 7c3f 0e47 983f 17b0 793f 9792 7a3f
000001c0: aefa 923f 4197 793f 2fb3 7a3f b6d3 7c3f
000001d0: eb67 813f 70a6 7f3f 993a 7a3f acf3 7f3f
000001e0: 3dc2 7d3f c4a1 7a3f 0168 7a3f 6d5b 963f
000001f0: 57b2 783f aa41 7e3f 29dc 793f a1cd 7e3f
0.9963787 1.0653287 0.99744236 1.0033965 0.96530014 0.979828 1.0544126 0.98581284
1.0339935 0.95953363 0.98852617 1.0440876 0.9973145 0.988487 0.9872425 0.9957627
0.9745461 0.97081274 0.99931717 0.9812765 0.9763218 0.99714714 0.9991385 1.0099423
0.99528915 0.97436684 0.93477917 0.98734283 0.9878838 0.98022884 0.9876109 1.0022129
0.9488067 0.9874852 1.0482471 1.04159 0.9863204 0.99215496 0.9654975 0.9768962
1.0002996 0.99668854 0.99361044 1.0022495 0.99922043 0.9968853 0.9981593 1.0267601
0.9788311 1.0016688 0.9883989 1.000276 1.0237395 0.9945571 0.97902095 0.9864132
0.9883486 1.0059476 0.9413304 1.1640344 1.0029769 0.9932541 0.97049737 0.9979768
0.9976455 0.98791623 1.0163753 0.98513967 0.98726267 0.97618484 1.0071307 0.9714728
0.99955124 0.9875177 1.1289138 1.0120782 1.0001823 0.97990817 0.9831113 0.9851927
0.9883649 0.989183 1.0121465 0.99205804 1.0007774 0.98940676 1.0043968 0.97105366
1.2349273 0.9661967 0.99945956 1.0807358 1.0372535 0.99831706 0.99304634 0.95734966
0.98222786 0.98439044 1.0384257 0.9810376 0.98603994 1.0021762 0.97965723 1.1636378
0.9973486 1.0047631 1.0645108 0.9976744 0.98605853 1.1896684 0.97534317 0.9787993
1.1482751 0.9749642 0.9792966 0.98760545 1.0109838 0.9986334 0.9774566 0.9998119
0.9912451 0.97903085 0.9781495 1.1746651 0.97147125 0.99318945 0.9760156 0.99532515

layers.2.bias f4 [128]
00000000: 3d82 a43b c86a 30bc 8049 aebc 573e d83b
00000010: 5ed1 0f3d 1354 c63b f972 9abc ea85 433c
00000020: 2063 16bd bfdd 2e3d 0bdd fc3a 396c 8abc
00000030: 037b ac3b 7e80 abbb 5e7c 2abc b8f4 efba
00000040: 0d70 b23c 5735 0d3d af59 5bbb 17b2 3a3c
00000050: dcf3 89bc bfd3 69bc e19e 1cbb 6048 acbc
00000060: ffac f2bb f581 2c3c 33ed 113d a95e 9c3c
00000070: f71b 353c c2c0 833c 5aaa 8f3b 896e 20bb
00000080: 4deb d538 627f a63c 8511 f0bb aec6 d33c
00000090: 9ee7 883c 68ea 1bbb 1a98 48bc 850c d33a
000000a0: 64bc cebc 4f18 343a 4767 dabc 6f18 35bc
000000b0: e043 74bc e7a1 e3b8 ce06 8dbc 0940 9d3c
000000c0: dfda 96bc b3fa c3bc ecc7 4c3c b978 7fb9
000000d0: 6837 6d3b eb80 023c 7a31 833c 6170 f73b
000000e0: 8902 973c d11c d0bb a9fe 32bc 6dde 95bb
000000f0: 4e07 d0bb 3795 2c3c 4c3c 04ba 5c06 87ba
00000100: 32a6 22bd fff1 243c 6ff3 9fbc 5d7f 85bc
00000110: 6abd ccba e84e ce3a 2171 89bc adee 62bc
00000120: cb95 083c 7506 903c 45f6 b138 c42a 8abc
00000130: 24f8 a43b c16d a73c 786c 513c 840a 553b
00000140: 1827 9abb c73b 2fbc 9237 7bbc 92ce c63b
00000150: 820f 19bc 26a5 47bc 0102 c33c f22a 973c
00000160: 9fcf 043c 8bf6 143d 872c 12bb 9e29 ae3c
00000170: e7ec 9bbb f8bd 18bb 3d6d 543c 8772 3d3d
00000180: 0699 aabc 852e b03c 0163 b53c b8cf 91bc
00000190: 7190 6d3c 5132 903c b7fc cf3c 0a4a cc3b
000001a0: 8f4e e539 c389 e4bb 24ad 50bc aed3 c33b
000001b0: 499b 963c 8081 6b3c 019a fa3c 9628 853c
000001c0: d19a 42bc c05a 64bb 66da 36ba cfa0 5e3c
000001d0: 9c10 bebc c47e 4d3a 3466 b6bc e8bf 2bbb
000001e0: 98db 3b3c b860 503c 22d9 ba3c 8138 c03b
000001f0: 9436 263c 0b9b f63b 0531 023d 3d08 e93b
0.0050204084 -0.010767646 -0.021275282 0.0065992284 0.035111777 0.006052503 -0.018853651 0.011933783
-0.036715627 0.042691942 0.001929195 -0.016897308 0.0052636876 -0.0052338233 -0.010405628 -0.0018307185
0.021781946 0.034474697 -0.0033470204 0.011394999 -0.016839914 -0.014271676 -0.002389841 -0.021030605
-0.0074058766 0.010529031 0.0356266 0.019088106 0.011054031 0.016083125 0.004384321 -0.0024479947
0.0001020046 0.020324413 -0.0073263072 0.025851574 0.016712006 -0.002379084 -0.012243295 0.0016101754
-0.025236316 0.00068700773 -0.026660575 -0.011053189 -0.014908761 -0.0001085436 -0.017215159 0.019195573
-0.018414913 -0.023923254 0.012498837 -0.00024363668 0.0036196355 0.007965307 0.016014803 0.0075512384
0.018433826 -0.0063510914 -0.0109249735 -0.0045736344 -0.006348527 0.0105336225 -0.00050443853 -0.0010301578
-0.039709277 0.010067462 -0.019525258 -0.016296083 -0.0015620415 0.0015740069 -0.016777577 -0.01385085
0.008336495 0.017581204 8.485889e-05 -0.016866095 0.0050344635 0.020438077 0.012782209 0.0032507489
-0.0047043674 -0.010695404 -0.015333073 0.0060671056 -0.009342076 -0.012185371 0.023804666 0.018453095
0.008106141 0.036367934 -0.0022304372 0.021260079 -0.0047584656 -0.002330659 0.012965498 0.0462518
-0.02082492 0.021506557 0.022141935 -0.017799243 0.01449977 0.017602118 0.025389059 0.006234412
0.00043736814 -0.0069744303 -0.012736592 0.005976162 0.018384593 0.014374137 0.030591013 0.016254704
-0.011877731 -0.003484413 -0.0006975293 0.013588144 -0.02320128 0.0007839019 -0.022265531 -0.0026206914
0.011465929 0.012718372 0.022808615 0.005866111 0.010144848 0.007525807 0.03178503 0.007111578

layers.3.weight f4 [128, 128]
00000000: ddad a1bd 2bd3 a53d c5ff bebc 58ec 0fbd
00000010: 4467 3cbc 3d4c 92bb ba92 893c e6d3 7d3d
00000020: 4ca3 703d 3a97 aabd e097 afbd c9b5 b4bd
00000030: a7d1 8e3d 8b55 7cbb 2bbd 66bd 4bc6 7dbd
00000040: 6d3f 0c3c 0e88 ae3c e181 403d 1bcb 883d
00000050: 2528 a43d c622 7ebd 3634 09bc 14ab 66bd
00000060: 1fec 11bd fb7e 05bc fa0c 863c 0c0f 32bd
00000070: 04f9 5abd 2a1b debc 8851 2d3d 9d3a a4ba
00000080: c52c 923d 5dd8 a8bd 55c5 1f3b ad98 833d
00000090: 2f2c 823d 7a74 87bd 4520 4fbd e546 a03b
000000a0: ea4d 043b 391f 483d e3ff 993d 9a9d 1cbc
000000b0: 8926 45bc 0c1a 363d dd65 68bd 4418 bb3c
000000c0: 4d45 5ebb 352e 71bc edf0 4a3d 6c1f aebc
000000d0: 01d6 883c 395e ae3c 1449 3cbc f2d9 c3bc
000000e0: b860 523d d71d 3b3d 4dbe 1a3c a845 ecbd
000000f0: 6e1b f93a 4f7f 6a3d 13d6 5b3d a414 05bd
00000100: fcb1 4c3d 6e7d 69bc 0594 10bc dafa 0fbd
00000110: 318c a23b 9c6c 033b eb65 983c 8e90 79bd
00000120: a35a 7f3c 5d3a 95bd 2e3c 48bc 34ce babd
00000130: f019 92bc ef37 4e3c f8c0 b33b 244e 593c
00000140: 26d5 2abd a7d9 58bd 3e32 babc ff8e 8fbd
00000150: 20c9 71bc 3fa2 1abb 621b a93c 09fd 99bd
00000160: e59c a03d 2483 933d ab4c 31bd eea2 9cbd
00000170: eef8 0b3d 708b 843c f6df dfbc 2648 36bd
00000180: d36e 4c3c 44ef 61bd 753a 0abd 5a77 273c
00000190: efa4 cd3b 3a94 163c 9922 913d 443d a6bd
000001a0: 38e7 d73c 8963 6f3d 29dc 92bd 0030 623d
000001b0: 1529 723d e042 47bd 8681 853d 9307 1abd
000001c0: 17cb 38bd 7393 983d cfea d83c 2f8e 23bc
000001d0: e3c9 92bd 3fbf 3e3d a3da d23c bcbd 66bd
000001e0: 3395 e4bb d983 753d c12c 233d 79e2 2dbd
000001f0: 2d6b 9fbb c5b9 0ebd aca1 5c3d 0d77 373d
00000200: 260c e8bb eccd 4bbe 10f0 22bd c3ee d8bc
00000210: 1f4b 3f3d 38b9 fabc 16da ba3c a8c0 b73d
00000220: 25bd 2f3d d688 463d 51ed 92bc 1292 3bbc
00000230: b22d 8ebd 9d45 2ebd d46a b43c 099d 143d
00000240: b7e5 6a3d 6e57 37bd c241 013d b4b7 2fbd
00000250: 2ac9 9abd 0558 e1bc 9428 5dbd 1572 c13c
00000260: 1b35 a63c 2dbf 103d 95c7 87b9 58e7 b83c
00000270: 81f9 223d a603 063d 1156 98bd 9813 0ebd
00000280: 3ebc 75bd dc6c 3bbd a1f0 d73c 429f a63d
00000290: 97ad 863d efe1 f3bc 11d3 2a3d 1106 3d3d
000002a0: 9214 f83c 8bef 87bd aa60 9f3c 8b4d 2d3d
000002b0: 95ae cc3b 57b1 b13d 8c86 a43d c699 4abd
000002c0: 344d ac3d 8ec6 4fbd 6caf 35bd a9d8 2b3d
000002d0: 40ef 16bc 2e5a a83d 1291 6e3d 367c 47bc
000002e0: d38f b83d 360c 6abd 7b2a f03b 6aef 2e3d
000002f0: 5760 643d 31da bc3d 19a3 273d aba6 07bd
00000300: 4b18 c23d 1ac4 883d 5efe a43b d3b1 8d3d
00000310: 4201 ad3c 86e6 efbb 7b14 0a3d 5562 d43b
00000320: e762 50bd 739a 963c 100e 053b 0f74 5ebd
00000330: 2e33 70bd e44f 0d3d 6eb7 eabc df0a 103c
00000340: 070d ad3d a720 923d 8bc4 643d e667 5a3d
00000350: f56f 873d 046c 1dbc b456 b83d 9c4a 74bd
00000360: e8e3 4fbd 1c40 ffbc f9bd bd3d 9f01 1b3d
00000370: ad2c e33c e6a6 6a3d 9eac a0bd 580f a3bd
00000380: 9464 413d 1286 c8bc e2e4 393d 2816 0ebd
00000390: 00a0 b63d 3192 47be 0ac2 4d3d 1c84 8e3d
000003a0: 36cc 28bd a8ae b23d 2e96 1e3d 9555 0cbd
000003b0: 329b 0cbd d6ea db3d f700 89bc 1153 463c
000003c0: d837 423d 543d 593d 1138 143c 2ed2 933d
000003d0: 0a31 0d3d 86e2 0d3d c026 05bd d2cb 3b3d
000003e0: d4e1 aebb 028f 8b3d d2c6 283d 4e03 d0bd
000003f0: 5f6b 90bc 9062 813d 1857 9d3d b331 f83c
-0.0789449 0.08096918 -0.02331532 -0.035137504 -0.01149923 -0.0044646547 0.016793597 0.06196966
0.058749482 -0.083296254 -0.0857389 -0.08823735 0.06973582 -0.0038503136 -0.05633275 -0.061956685
0.008560044 0.02130511 0.046998862 0.06679364 0.080154695 -0.06204488 -0.008374264 -0.056315497
-0.035625573 -0.00814795 0.01636361 -0.04347138 -0.053460136 -0.027112562 0.042314082 -0.0012529675
0.07137445 -0.08244393 0.0024379094 0.06425605 0.063560836 -0.06614013 -0.050567884 0.004891264
0.0020188042 0.0488579 0.0751951 -0.0095590595 -0.012033113 0.044458434 -0.05673777 0.02283872
-0.0033915818 -0.014720489 0.04954617 -0.021255217 0.016703608 0.021285163 -0.011492033 -0.023907635
0.05136177 0.045682754 0.009444785 -0.115367234 0.0019005367 0.057250317 0.053670954 -0.032490388
0.049974427 -0.014251096 -0.008824353 -0.03515134 0.00496056 0.002005375 0.018603286 -0.060928874
0.015585574 -0.072865225 -0.012221379 -0.091213614 -0.017834634 0.012586578 0.00548565 0.013263259
-0.04170718 -0.052941944 -0.022729035 -0.07009696 -0.014757425 -0.0023595241 0.02064294 -0.07518966
0.07842425 0.072027475 -0.043286007 -0.07648264 0.034172945 0.01617977 -0.027328473 -0.0445024
0.012477594 -0.055159822 -0.033747155 0.010221327 0.006275765 0.009190613 0.07086677 -0.08117154
0.02635537 0.058444533 -0.071708985 0.055221558 0.05912121 -0.04864776 0.06518845 -0.03760488
-0.045115557 0.07449999 0.026479153 -0.00998263 -0.07167413 0.046569105 0.02573902 -0.05633329
-0.0069757937 0.059940193 0.039837603 -0.04245231 -0.0048650713 -0.034845132 0.05386512 0.04479127
-0.0070815263 -0.19902772 -0.039779723 -0.026481038 0.0467025 -0.030605897 0.02280907 0.08972293
0.04290499 0.04847034 -0.017935427 -0.0114484 -0.069423094 -0.042546857 0.022023596 0.036282573
0.05734798 -0.044761114 0.031556852 -0.042899802 -0.075579 -0.027507791 -0.053993776 0.023613969
0.020288995 0.03533857 -0.00025897907 0.02257125 0.039788727 0.032718323 -0.07438291 -0.034686655
-0.059993975 -0.045758113 0.026359858 0.08135845 0.065760784 -0.02977082 0.041705195 0.046148364
0.030283246 -0.06637486 0.019455273 0.04231028 0.0062463977 0.08676403 0.08033475 -0.049463056
0.08413163 -0.050726466 -0.04435675 0.04195467 -0.009212315 0.082203254 0.05824382 -0.01217561
0.09011807 -0.05714055 0.007329283 0.04270879 0.05575594 0.09221304 0.040927026 -0.03311793
0.0947729 0.066780284 0.0050352057 0.06918683 0.021118764 -0.0073211817 0.033710938 0.0064814487
-0.05087557 0.018384194 0.0020302571 -0.0543099 -0.05864256 0.034500018 -0.02865192 0.008791654
0.084497504 0.07135134 0.0558515 0.05332174 0.06613151 -0.009608272 0.09000912 -0.059641466
-0.050754458 -0.0311585 0.0926475 0.037843343 0.027731264 0.057288073 -0.07845424 -0.07961911
0.04721506 -0.024477992 0.045384295 -0.0346891 0.08917236 -0.19489361 0.05023388 0.069587916
-0.041210376 0.08724719 0.03871744 -0.034261305 -0.034327693 0.10738151 -0.016724093 0.0121047655
0.047416538 0.053037003 0.00904657 0.07217823 0.034470595 0.034639858 -0.032507658 0.045848675
-0.0053369794 0.06814386 0.041205235 -0.1015688 -0.017629324 0.063176274 0.076826274 0.030297136

layers.3.bias f4 [128]
00000000: 891c b43d 71ef 86bd 6ce2 88bd 272d 1d3d
00000010: cd2e 9dbc 3533 9d3d 56fe 67bd cbf9 0e3d
00000020: d760 b83b 3776 6abc 4ecb e1bd e74a afbc
00000030: 9306 96bc cdcd 86bd 59a8 2f3d 3285 863d
00000040: 97df 8c3d 303b 833d d4a0 21bd 3b2e 68bd
00000050: c03a 523d b8ba 863d c8e4 2fbd 6c32 2f3d
00000060: d7ef 52bd 522b 5ebd 5eda ef3c 442d 933d
00000070: f096 9cbd 763e 193d 45f4 853d 0ed4 a13a
00000080: ede7 b33c 1bd0 a53c 787f f6bb b733 123d
00000090: 4cd7 94bd 7ecb 6dbc 1df0 7abd 37e2 0d3d
000000a0: fff4 b3bd 8359 223c e1bf 54bd f473 433d
000000b0: 09af 8abb a635 9c3a 8fbc 2a3c 60aa bb3c
000000c0: a067 e93c 8efb 2a3d 00cc 1ebd cc10 4bbd
000000d0: 7657 273c 7562 b3bd e0b2 513c e002 bf3c
000000e0: e3fc 4f3d 8ac4 7d3d 0779 83bd 6ebe 82bd
000000f0: e87a 12bd b84c b5bd 3dd0 ce3b 408f 1b3d
00000100: 7bfa 373d b96a d6bd 6b4f 073d 32b0 9ebd
00000110: 8907 4ebd 1e7f 8dbd 7930 3abd 9126 3dbd
00000120: ae99 61bd 5758 8d3d d40d a0bc 207f c83a
00000130: 9aaa 04bd 985f 343d 6564 9abd 0e99 2fbd
00000140: 08f0 4cbd f9fb 80bd 3aba f1bc a50d d1bd
00000150: b940 97bc eb1a c2bd 8176 c1bb 1c75 dd3b
00000160: e358 3f3d ff44 a4bd 234a 1ebd 4f21 e4bc
00000170: 7aa5 cdbd e35a 163d 1b0c a83b 0f30 003c
00000180: d3fa ccbc 21de 583b 9ca6 943d 6f00 43bd
00000190: 7ad9 e53c 8e1d 923c b6a3 c9bd e665 26bd
000001a0: dbb4 6fbd f3aa c0bd 53bb 843d e3dd 3ebd
000001b0: fb0a 46bd 3e61 d4bd d3be 803d 0821 3ebc
000001c0: 46bd 883d 26e0 433d f8ad 59bd 0d9e 87bc
000001d0: a40b 033d 3975 9c3d 1659 cebc 03dd 1fbd
000001e0: 7420 a33d c224 363d 4749 47bd 26d5 2d3c
000001f0: e3d7 98bd 8919 493c 8615 483c f030 42bd
0.08794505 -0.065886386 -0.066838115 0.03837314 -0.019187355 0.076757826 -0.056639038 0.03490619
0.0056267786 -0.014310411 -0.110251054 -0.02139802 -0.018313682 -0.06582222 0.04288516 0.06568374
0.06878584 0.064077735 -0.03946002 -0.056684714 0.05132556 0.065785825 -0.042942792 0.042772695
-0.05149826 -0.054240532 0.02927893 0.07186368 -0.076459765 0.037413083 0.06540731 0.0012346522
0.021961177 0.020240834 -0.0075225197 0.03569385 -0.07267627 -0.014513848 -0.061264146 0.034639563
-0.08786964 0.009909037 -0.051940802 0.047718003 -0.0042322916 0.0011917844 0.010420932 0.02290839
0.028491795 0.041743807 -0.03876877 -0.049576566 0.010213723 -0.087590136 0.012798995 0.0233168
0.05077828 0.061955012 -0.064195685 -0.06383978 -0.035761744 -0.088525236 0.006311445 0.03797841
0.04491661 -0.104695745 0.033034723 -0.0774845 -0.050300155 -0.06909011 -0.045456383 -0.046179358
-0.0550782 0.06901615 -0.019537844 0.0015296675 -0.03238926 0.044036478 -0.0753868 -0.042870574
-0.0500336 -0.0629806 -0.029507745 -0.102076806 -0.01846348 -0.094777904 -0.0059040193 0.0067583453
0.04671563 -0.080209725 -0.03864492 -0.027847914 -0.10041328 0.03670777 0.005128396 0.007823958
-0.025021946 0.0033091384 0.07258341 -0.047607835 0.028057802 0.017836358 -0.098456785 -0.04062452
-0.058522087 -0.09407606 0.06481042 -0.046598326 -0.048350316 -0.1037011 0.06286397 -0.011604555
0.06676726 0.047821186 -0.053144425 -0.016554857 0.031993523 0.07639546 -0.025188964 -0.039029133
0.07965174 0.04446865 -0.048653867 0.010609901 -0.07463052 0.012274154 0.012212163 -0.04740995

layers.5.weight f4 [128]
00000000: f547 983f 79ba ad3f 1c39 7b3f a8b2 7c3f
00000010: 5880 913f a23b 7a3f c6f8 9a3f 865b 803f
00000020: 1599 aa3f 4156 ac3f b526 7f3f 98f5 7c3f
00000030: dafb 793f 282f a03f e11b 9f3f def5 7f3f
00000040: e43d 933f 5395 8c3f a433 7c3f 75dc a93f
00000050: f1bb 833f 6f9b 7d3f f763 7a3f c46c 7f3f
00000060: f6d7 7c3f 3910 7e3f bbdf b33f 2af7 7f3f
00000070: 357d 7d3f c919 7f3f 361f 7d3f a8f6 7e3f
00000080: ba81 7c3f 17fe a83f c572 7d3f d585 a13f
00000090: a7ec 813f fc45 b03f cc14 7b3f fdd5 7f3f
000000a0: d931 803f 8cca 963f 8eb4 7c3f 03fd 9d3f
000000b0: 668a 7c3f 0bfa 803f 668a 8c3f ae70 a13f
000000c0: e0b5 8c3f adbe 7e3f caaf 9f3f bc9b 7d3f
000000d0: af6d a13f 38e5 8a3f 992e 7b3f 9a65 783f
000000e0: 3470 993f 8cec 7f3f 6d99 7f3f cd96 a23f
000000f0: 94b2 7a3f da36 7c3f 74df 8c3f 0120 7e3f
00000100: 8b33 833f 6d71 813f f2b9 ab3f a122 aa3f
00000110: d4e3 7c3f 027c 9a3f d8c3 7e3f b2a6 9f3f
00000120: 8158 7d3f 3cab 943f afd4 7f3f 9ef7 b53f
00000130: 199c ac3f 23b5 7c3f 4791 b03f 1702 a13f
00000140: 925d 793f e9b3 7f3f 731c 7b3f 74b5 7d3f
00000150: eb9f 953f b936 7f3f 2117 ab3f 0cbc a43f
00000160: 104e a83f 0c40 9b3f ea21 7e3f a1ac 7a3f
00000170: 8743 a13f dc30 783f 6071 b63f 56c6 9d3f
00000180: e362 b13f c283 7a3f 7a9d a33f 79d8 923f
00000190: 7f53 ac3f 6a82 9a3f 0cb4 aa3f e838 803f
000001a0: 91bb 7d3f c2a4 7f3f 5d15 7e3f bbe6 853f
000001b0: 609d 783f 200b 913f 3e6c a03f 0a26 ad3f
000001c0: e975 ad3f cd5f 7e3f cd97 813f 9e33 a93f
000001d0: 3c96 843f 164a 7b3f 061b 793f 8a41 7c3f
000001e0: b517 843f be9b 793f c815 7e3f 0457 833f
000001f0: fd0e 803f c5a5 7c3f ecdb a43f af84 913f
1.189696 1.3572532 0.98134017 0.9871011 1.1367292 0.9774724 1.210717 1.0027931
1.3327967 1.3463823 0.9966844 0.98812246 0.9764992 1.2514391 1.2430383 0.9998454
1.1503263 1.098307 0.985163 1.3270403 1.029173 0.990653 0.97808784 0.9977534
0.9876703 0.99243504 1.4052652 0.9998652 0.99019176 0.9964872 0.9887575 0.9959512
0.9863545 1.3202542 0.9900325 1.2618967 1.0150346 1.3771358 0.9807861 0.99935895
1.0015212 1.1780562 0.98713005 1.2342838 0.9864868 1.0076307 1.0979736 1.2612512
1.0993004 0.995097 1.2475522 0.99065757 1.2611598 1.0851202 0.9811798 0.9703003
1.1987367 0.99970317 0.99843484 1.2702271 0.9792874 0.98521197 1.1005692 0.99267584
1.0250105 1.011274 1.3416121 1.3291818 0.9878514 1.2069094 0.99517584 1.2472746
0.9896317 1.1614757 0.99933904 1.4216192 1.3485137 0.9871389 1.3794335 1.2578763
0.974084 0.99883896 0.98090285 0.99105 1.1689428 0.99692875 1.3366433 1.2869887
1.3148823 1.212892 0.992705 0.9791966 1.2598733 0.96949553 1.4253349 1.2326152
1.3858303 0.97857296 1.2782433 1.1472312 1.3462981 1.2071049 1.3336196 1.0017366
0.9911433 0.99860775 0.9925135 1.0461038 0.97115135 1.133152 1.2533033 1.3527234
1.3551608 0.9936493 1.0124451 1.3218877 1.0358348 0.9815992 0.9730686 0.98537505
1.0319735 0.9750327 0.99251986 1.026093 1.0004574 0.98690444 1.2879615 1.1368617

layers.5.bias f4 [128]
00000000: cfb1 b43c 2024 ee3b 5326 a33c 397d 393c
00000010: c6e4 a23c 78a3 503a 7e28 05bb 67cc 5a3a
00000020: 6cb6 b53c 85e2 39bc 430d ef3a 28ea 053c
00000030: 2c94 803c 657d 263d 770d 4c3d 35a7 1b3a
00000040: ff1a b93c 5744 5d3c d54f a73c 35e9 f33c
00000050: 208c 10bd 80b9 82bc c056 153c 7ca4 03bb
00000060: c5bd 8c3b d2b7 b63b 279a 0abd a48a 1d3b
00000070: d65b 833c 8563 c5ba f1f7 833b 9bed 40bb
00000080: 48ad 7b3c 1dea 84bc 7a81 3c3c 2e20 88bc
00000090: 5e21 18bc d08c b9bc 1830 2e3c 4d8f 393b
000000a0: b879 173c 2e94 02bd 7919 613c be28 5a3c
000000b0: 9177 923c 7ee5 79bb 0c57 40bc c130 3cbd
000000c0: 1a62 2fbc 4b7d c53b 42b3 7cbc d3c2 213c
000000d0: 46fe 623c d694 883c 3f40 143c 7d85 113d
000000e0: 6ba2 383c adcd fbba c835 d93b 53b9 3dbd
000000f0: 670c d23c 1159 283c 0416 1b3c 325d 3c3c
00000100: 752f 953c 1207 2cbc 3520 dfbb 87a2 613d
00000110: 12a5 703c 2c50 353c 00f8 6ebb eb00 af3b
00000120: 484c ef3b da24 8a3c 99cf 8e3b cd19 42bd
00000130: dc73 8d3c 29d1 be3b 5dcc fdbc 93e0 373b
00000140: 5fad edbc 5beb fc3b d686 c13c 8fb3 9c3c
00000150: 0155 a8bc 7a85 7bba 305e 3b3d 83c6 993c
00000160: 18ac 9bba 77ee d13b a110 283c 38ae c13a
00000170: 3cfd a63c 70ba d9bb 4c85 79bb 0ba0 d33c
00000180: 3adc 7bbd 03e9 bf3c 9acc 4e3d 109e 5dbc
00000190: 8dab 6abb 6b54 63bc aad9 13bd 6806 49bc
000001a0: af09 563b 89d6 8cba 7b66 cf3b 6eb5 b5bc
000001b0: d2f7 0a3d ee3a 5d3b 1e05 b53c 4df1 593b
000001c0: e2d7 84bd d861 bd3b df3b 5abc 5bc3 993c
000001d0: a38a 823b 1e01 9c39 252c a83c 4ce2 a23c
000001e0: b51c 3b3c 3cbe 08bd 5687 e1bb 050c ae3c
000001f0: e6f9 18ba a327 53bc e239 ad3c 7241 bdbb
0.022057442 0.00726749 0.019915735 0.011321359 0.019884478 0.0007958929 -0.0020318325 0.00083464984
0.022181712 -0.01134551 0.0018238205 0.008173503 0.015695654 0.04064693 0.04981753 0.00059376966
0.02259588 0.013505063 0.020423809 0.029774288 -0.035289884 -0.015957594 0.009114921 -0.0020087054
0.004295083 0.0055761123 -0.033838417 0.0024038935 0.016035002 -0.0015059566 0.0040273597 -0.00294385
0.015361138 -0.016224915 0.011505479 -0.016616907 -0.009285299 -0.022650152 0.010631584 0.0028314174
0.009245329 -0.031879596 0.013738983 0.013315378 0.01787928 -0.0038131173 -0.011739504 -0.045944933
-0.010704542 0.006026899 -0.015423598 0.00987311 0.013854569 0.016672533 0.009048521 0.035527695
0.011269192 -0.0019211076 0.0066287257 -0.046319317 0.02564068 0.010275141 0.009465698 0.011496829
0.018211106 -0.010499733 -0.0068092593 0.05508664 0.014687793 0.011066478 -0.0036463737 0.0053406856
0.0073027946 0.016863275 0.0043582437 -0.047387887 0.01726716 0.0058232737 -0.030981237 0.002805744
-0.029013334 0.0077184862 0.023623865 0.019128589 -0.020548346 -0.00095947797 0.04574412 0.018771416
-0.001187685 0.006406601 0.010257871 0.0014776653 0.020384423 -0.0066445395 -0.0038073836 0.02583315
-0.06148932 0.023426538 0.050488092 -0.013526455 -0.0035807819 -0.013875107 -0.036096253 -0.012269594
0.003265958 -0.0010745089 0.0063293553 -0.022181239 0.033927746 0.0033757049 0.022097167 0.0033255399
-0.06486489 0.005779486 -0.013319938 0.01876991 0.003983812 0.0002975547 0.020528862 0.019883297
0.0114204185 -0.033384547 -0.0068825884 0.021245966 -0.00058355776 -0.012887868 0.021145765 -0.005775624

layers.6.weight f4 [199, 128]
00000000: 3169 c33c 7997 39bc 93f0 c13b 4213 8cbd
00000010: 1e48 4d3d ec16 023d da72 53bd 13ad 613d
00000020: da88 92bd 0490 abbd ca51 3fbd 70f1 96bd
00000030: 791f 5f3d f89d ce3d be9a 7dbd 56ff 64bd
00000040: 31a8 27bd 3087 5fbd f3c7 083c fc84 11be
00000050: e52b 8c3d f180 26bd 3c96 e6bc dced 753c
00000060: 1f2a 5abd cf04 88bd 9089 27be 9479 673b
00000070: 429d 4ebd a2e6 64bd 0799 b03d d275 d63b
00000080: b1ff 38bc 3737 5abd b8f4 603d 67ab b8bc
00000090: 671d b63d 32e2 7a3d 63e5 46bd 8efb 773d
000000a0: ab94 28bd d520 723d 82d2 5ebb e877 cabd
000000b0: 1430 34bd b74b b2bd a928 8bbd 4156 f2bc
000000c0: 7e55 93bd 4295 30bc b69c 2abd 3948 9b3c
000000d0: 20e3 d4bd b17c fcbb 5365 e7bb f666 503c
000000e0: 234f 99bd 8d50 b33d bf8e 21bc 69dd e83c
000000f0: 3446 a73d baa2 2c3d 5c6c 223d cfab a83d
00000100: c995 a2bd 214d 7dbd add4 f73d dc9b 69be
00000110: 7c32 18bd 36d8 06be 7286 da3c 25c7 003e
00000120: 0721 f5bc e4df 39bd 240c 1b3d 789b 83bd
00000130: 4317 ad3d 79e5 633d d708 41bd 7445 1fbe
00000140: 2aa1 853d 5038 893d 1726 34bd fcff 96bd
00000150: e1fe 383b 4d69 723d 6340 3abe a99e 1f3e
00000160: 0dd1 a73d 7b32 c93d b394 813d b70b 863b
00000170: 31e1 573d 10e7 523c feda 1dbe 8d53 17bd
00000180: 0acc 09be 470d 1b3d 0df9 22bd 8aef 2abd
00000190: 82bd fe3d ab87 e6bc 791b 85be 389b f0bc
000001a0: 2319 3fbc 7c5b b33d db09 34bd 5f08 723d
000001b0: 0536 9f3d 3b2c 643d 733a 2ebd 42f2 b03d
000001c0: 86a7 393e a86b dd3c 4088 b5bd 0388 cfbd
000001d0: 0843 b4bc 1b12 eebb 1f49 36bd 8262 b83c
000001e0: ddea 1c3d 9933 8bbd cdbf 15bd 0804 353d
000001f0: f288 adbd 320d e43c 5a3b d23d 3524 c4bd
00000200: 868f 723d d21b 113b 3efc 5dbc f819 6fbc
00000210: 7180 6fbd ff6e 76bb 6604 cdbd 3d85 5b3d
00000220: 2bb9 b8bd 438f dabd 55db d03c 9b30 75bc
00000230: 83c2 1c3c b8ff 633d 129d 69bc 1fe7 12bd
00000240: 8f75 8a3d 47e2 2f3d 09f3 8bbb 5bf2 bfbd
00000250: 45bf 953d 1f63 233d e6db e8bb ab9f 65bc
00000260: c03e 58bc 3430 94bd 2e0f 20be b146 9bbd
00000270: 6fc3 4d3d 2b44 163d 1bd0 323c 5fa8 b3bd
00000280: b2bc 88ba 47db c8bc e07a 883c d3fa 983d
00000290: 0119 c23d 40b2 003e 2654 8f3d f787 65bc
000002a0: 25ca 2c3d 7344 aebc b6a7 633c e278 dabd
000002b0: 1881 cebc 5b29 aa3d 61a0 283d bdc0 b4bd
000002c0: 13aa 99bd 4f38 903d 6904 af3c c41b 37bd
000002d0: a8cf b8bd e3a9 95bb 0deb e23c 0ee2 913d
000002e0: 9d07 41bd fcba 78ba b271 8e3d c55f 0c39
000002f0: 2092 ad3c 0bd5 b6bc 158e 873d 9c03 e33c
00000300: 7ff2 9bbc 522c b73c c1be 853d b43a 95be
00000310: 782b a33d 5477 5bbc 104c 573c ef82 e0bc
00000320: 967d 913d 8a84 dbbd c4eb 483c 9002 cbbd
00000330: 69da b63d 16e3 343c ead6 41be 8a7c 22be
00000340: 2d92 62bd 186d 4dbd 3bcd a4bd 372d 893d
00000350: 9cfe d6bc 006e 8e3b f8d5 85bd 4e16 243e
00000360: 7747 263e 5069 083e 9904 6bbc 1c02 013d
00000370: 12cb a43d 1e8e 5e3d caea 60be 365a 98bd
00000380: cef8 33be 145c 583d 9b5b 9e3d 4c15 6f3d
00000390: 9792 0b3e 43b0 beb8 2d5e 81be 388a d23d
000003a0: 8c46 633d 5879 acba 432e b7bd 3c42 c03d
000003b0: 82d0 69bd bacd 1fbd 4b0e 2e3c 9dae b03d
000003c0: 39fe 143e fa83 323d 5dc0 64bd b46b 00be
000003d0: 4d2e ccbc 1216 9dbd f490 a3bd fef6 973d
000003e0: a87d 1fbd a150 e7bc a9bf 6c3d 4aec 55bc
000003f0: 14c2 d5bc 4bf2 8abd 6c67 823d ac86 babd
0.02385387 -0.011327618 0.0059185713 -0.06839611 0.050117604 0.03176014 -0.051623203 0.055096697
-0.071550086 -0.08377078 -0.04670886 -0.07370269 0.054473374 0.10088724 -0.06191515 -0.05590757
-0.040931884 -0.054572284 0.008348453 -0.14210886 0.0684431 -0.04065031 -0.02814781 0.015010323
-0.053262826 -0.06641542 -0.1636107 0.003532027 -0.05044294 -0.05588401 0.08622938 0.006544807
-0.01129143 -0.053275313 0.054920882 -0.022542669 0.08892327 0.061250873 -0.048558604 0.060542636
-0.041157406 0.059113342 -0.0033999984 -0.098861516 -0.043991163 -0.08705848 -0.06794865 -0.029582145
-0.07194041 -0.010777773 -0.041653357 0.018955337 -0.10394883 -0.007705294 -0.0070616393 0.01271986
-0.07485797 0.08755598 -0.0098606935 0.02842589 0.08167687 0.042147376 0.03965412 0.08235895
-0.079387255 -0.061841134 0.121011116 -0.22813362 -0.03715752 -0.13168415 0.026675437 0.12575968
-0.029922975 -0.045379534 0.037853375 -0.06426138 0.084517024 0.055638764 -0.04712757 -0.15553838
0.0652488 0.06700194 -0.043981638 -0.07373044 0.0028228092 0.059182454 -0.18188624 0.15587868
0.0819417 0.098240815 0.0632719 0.004090752 0.052704994 0.012872472 -0.1541557 -0.036944915
-0.13456741 0.03785446 -0.039788295 -0.04173235 0.124384895 -0.028140863 -0.25997522 -0.029370889
-0.011663708 0.08757684 -0.04395471 0.059090015 0.07773975 0.055706244 -0.04253621 0.08639957
0.18130311 0.027028874 -0.08863878 -0.10133364 -0.02200462 -0.007265342 -0.044503327 0.02250791
0.03830992 -0.06796951 -0.03655987 0.044193298 -0.08473386 0.027838323 0.10265227 -0.095772184
0.059218906 0.0022141826 -0.013548909 -0.014593594 -0.0584721 -0.003760278 -0.100106046 0.053593863
-0.09019693 -0.10671856 0.02549521 -0.014965202 0.00956786 0.055663794 -0.01425864 -0.035864946
0.06760704 0.042940404 -0.0042709154 -0.093723975 0.073118724 0.03988945 -0.007106292 -0.014015119
-0.0131985545 -0.072357565 -0.1563079 -0.07581843 0.050235208 0.036686104 0.010913874 -0.087723486
-0.0010432212 -0.024518622 0.016660154 0.07469716 0.09477425 0.12567997 0.06998472 -0.014009467
0.042184968 -0.021272874 0.013894966 -0.10667588 -0.025208041 0.08308669 0.041168574 -0.088258244
-0.07503142 0.0704199 0.021364408 -0.044704214 -0.09023982 -0.004567371 0.027699972 0.07123195
-0.0471264 -0.0009488312 0.069552794 0.00013387117 0.021187842 -0.022318384 0.06618897 0.027711682
-0.01903653 0.02236 0.06530524 -0.2914635 0.079672754 -0.013395149 0.013140693 -0.027406184
0.07104032 -0.10718639 0.012263242 -0.09912598 0.08928377 0.01104047 -0.1892964 -0.1586782
-0.055315185 -0.050152868 -0.08046957 0.06698077 -0.026244454 0.004346609 -0.06534952 0.16024134
0.16238199 0.13321424 -0.014344358 0.031496152 0.08046545 0.054334752 -0.21964565 -0.07439081
-0.1757538 0.052822188 0.07732316 0.05836992 0.13630138 -9.092737e-05 -0.25267163 0.102802694
0.0554872 -0.0013158722 -0.089443706 0.09387633 -0.057083614 -0.039014556 0.010623525 0.08627055
0.14550103 0.043582894 -0.055847514 -0.12541085 -0.024924422 -0.07670225 -0.07986632 0.07420157
-0.038938195 -0.028236689 0.05779997 -0.013056824 -0.02609352 -0.06784495 0.063673824 -0.09107718
