results/maml_weight_space/meta_mlp_model.pt/meta_learning.pth (torch, 850760 bytes, 25 tensors)

module.model.0.weight f4 [64, 3072]
0	0xbe044b72	-0.12919405
1	0xbe033aeb	-0.12815444
2	0xbe14936e	-0.14509365
3	0xbe01c8bc	-0.1267423
4	0xbe145466	-0.1448532
5	0xbe0d787c	-0.13815492
6	0xbe18b1d8	-0.14911592
7	0xbe072ee5	-0.13201483
8	0xbe026316	-0.12733111
9	0xbe1cb7ff	-0.15304564
10	0xbe02966f	-0.12752698
11	0xbe0db5c7	-0.13838874
12	0xbe04b7a5	-0.1296068
13	0xbe0e8c92	-0.13920811
14	0xbe08e677	-0.13369165
15	0xbe130ee5	-0.1436115
16	0xbe04308b	-0.12909143
17	0xbe0e593b	-0.13901226
18	0xbe185edf	-0.1487994
19	0xbe0c9a53	-0.13730745
20	0xbe1845b8	-0.14870346
21	0xbe12aba5	-0.1432329
22	0xbe176143	-0.14783196
23	0xbe05f28c	-0.13080806
24	0xbe1da0a4	-0.15393311
25	0xbe1846dc	-0.1487078
26	0xbe155d75	-0.14586432
27	0xbe1a8f08	-0.15093625
28	0xbe0f38df	-0.13986538
29	0xbe20dc7e	-0.15709111
30	0xbe020902	-0.12698749
31	0xbe1e9b2c	-0.15488881
32	0xbe042bcf	-0.12907337
33	0xbe0e0b86	-0.13871583
34	0xbe160d22	-0.14653447
35	0xbe06af93	-0.13152914
36	0xbe0e37e9	-0.13888516
37	0xbe03960f	-0.12850212
38	0xbe0efa4b	-0.13962667
39	0xbe15e660	-0.14638662
40	0xbe0c6123	-0.1370893
41	0xbe152e76	-0.14568505
42	0xbe09e54b	-0.13466375
43	0xbe023412	-0.12715176
44	0xbe0755ff	-0.13216399
45	0xbe17e1f8	-0.14832294
46	0xbe075975	-0.13217719
47	0xbe0dd7d0	-0.13851857
48	0xbe087a3d	-0.1332788
49	0xbe1ab0ff	-0.15106581
50	0xbe20e5d1	-0.15712668
51	0xbe170e39	-0.1475152
52	0xbe1d4393	-0.15357809
53	0xbe0361af	-0.12830232
54	0xbe0c10a2	-0.1367822
55	0xbe0a00fb	-0.13476937
56	0xbe0b99ec	-0.13632935
57	0xbe110afd	-0.14164348
58	0xbe040006	-0.12890634
59	0xbe1c56e8	-0.15267527
60	0xbe0fbb84	-0.14036375
61	0xbe1be2e2	-0.15223268
62	0xbe0bbb05	-0.13645561
63	0xbe165ea6	-0.14684543
64	0xbe0bc325	-0.1364866
65	0xbe142778	-0.14468181
66	0xbe033d71	-0.12816407
67	0xbe1a6bde	-0.1508021
68	0xbe1a7b09	-0.15085997
69	0xbe1a7b30	-0.15086055
70	0xbe02183f	-0.12704562
71	0xbe0b5339	-0.13605966
72	0xbe011238	-0.12604606
73	0xbe1e3611	-0.15450312
74	0xbe20ee0b	-0.15715806
75	0xbe1d832e	-0.15382072
76	0xbe1bb9b1	-0.15207554
77	0xbe0a278f	-0.13491653
78	0xbe0aec06	-0.13566598
79	0xbe03371d	-0.12813993
80	0xbe192ca5	-0.14958437
81	0xbe1bdf6f	-0.15221952
82	0xbe081c29	-0.13291992
83	0xbe175922	-0.14780095
84	0xbe06dd1a	-0.13170281
85	0xbe14a028	-0.1451422
86	0xbe076fc4	-0.13226229
87	0xbe1d6ca7	-0.15373479
88	0xbe18fc59	-0.14940013
89	0xbe0bc99d	-0.13651128
90	0xbe0d4fa1	-0.13799907
91	0xbe14e9d1	-0.14542319
92	0xbe0709f3	-0.13187389
93	0xbe05acb6	-0.13054165
94	0xbe1c950c	-0.15291232
95	0xbe1975ff	-0.14986418
96	0xbe01d4f4	-0.12678891
97	0xbe1641ea	-0.14673582
98	0xbe1689c2	-0.14700988
99	0xbe208882	-0.15677074
100	0xbe1a17df	-0.15048169
101	0xbe0cafc6	-0.13738927
102	0xbe12e89e	-0.14346549
103	0xbe1c9806	-0.15292367
104	0xbe106068	-0.14099276
105	0xbe1be521	-0.15224124
106	0xbe1e969f	-0.15487145
107	0xbe19bcd2	-0.15013435
108	0xbe1f0781	-0.15530206
109	0xbe1b23ee	-0.15150425
110	0xbe00765a	-0.12545148
111	0xbe0dae9c	-0.1383614
112	0xbe0bbbd4	-0.1364587
113	0xbe1ff5dc	-0.15621132
114	0xbe1b76fe	-0.1518211
115	0xbe162ef4	-0.14666349
116	0xbe0e35c4	-0.13887697
117	0xbe1f1ac2	-0.15537551
118	0xbe17c77b	-0.1482219
119	0xbe1a8461	-0.15089561
120	0xbe10b70e	-0.1413233
121	0xbe16d403	-0.14729314
122	0xbe11e35f	-0.14246891
123	0xbe1bce72	-0.15215471
124	0xbe1bf2e1	-0.1522937
125	0xbe1a452a	-0.15065446
126	0xbe1655f2	-0.14681223
127	0xbe1da045	-0.15393169
128	0xbe0317e4	-0.12802082
129	0xbe13fedc	-0.1445269
130	0xbe02bb4b	-0.12766759
131	0xbe0bad9e	-0.13640448
132	0xbe1e8fcc	-0.15484542
133	0xbe0579ae	-0.13034698
134	0xbe153f27	-0.14574872
135	0xbe1701d6	-0.14746794
136	0xbe1e4a6a	-0.15458074
137	0xbe20f789	-0.15719427
138	0xbe0c18ad	-0.13681288
139	0xbe1451a2	-0.14484265
140	0xbe0a69e1	-0.13516952
141	0xbe1e22ce	-0.15442964
142	0xbe04a8e2	-0.12955049
143	0xbe1cb9b9	-0.15305223
144	0xbe1392fd	-0.1441154
145	0xbe0d5a86	-0.13804063
146	0xbe085774	-0.1331461
147	0xbe0398d1	-0.12851264
148	0xbe01e84b	-0.12686269
149	0xbe1daf3f	-0.15398882
150	0xbe0ca7f9	-0.13735951
151	0xbe17c463	-0.1482101
152	0xbe128bb1	-0.143111
153	0xbe1cf61f	-0.15328263
154	0xbe01e8b8	-0.12686431
155	0xbe1cb94e	-0.15305063
156	0xbe080bc3	-0.13285737
157	0xbe0b076f	-0.13577054
158	0xbe0b758d	-0.13619061
159	0xbe1992f5	-0.14997466
160	0xbe01f0b1	-0.12689473
161	0xbe0d2cb5	-0.13786586
162	0xbe0ea8b9	-0.1393155
163	0xbe1f201b	-0.15539591
164	0xbe09e9b4	-0.13468057
165	0xbe13341b	-0.14375345
166	0xbe183aeb	-0.14866225
167	0xbe02c157	-0.12769066
168	0xbe0d1f4e	-0.13781473
169	0xbe19c7ae	-0.15017578
170	0xbe190272	-0.14942339
171	0xbe1188a5	-0.14212282
172	0xbe07a880	-0.13247871
173	0xbe14ec40	-0.14543247
174	0xbe1a0f1a	-0.15044823
175	0xbe16568c	-0.14681453
176	0xbe1cf042	-0.15326026
177	0xbe0af210	-0.13568902
178	0xbe04236f	-0.12904142
179	0xbe201abb	-0.15635197
180	0xbe0cf882	-0.13766673
181	0xbe08560f	-0.13314079
182	0xbe0dcdd9	-0.13848056
183	0xbe16908b	-0.14703576
184	0xbe08401e	-0.13305709
185	0xbe083169	-0.13300098
186	0xbe0aaa1b	-0.13541453
187	0xbe139fc9	-0.14416422
188	0xbe1513a5	-0.14558275
189	0xbe0f0429	-0.1396643
190	0xbe13a3b0	-0.1441791
191	0xbe159d7b	-0.14610855
192	0xbe06566f	-0.1311891
193	0xbe02bf72	-0.12768343
194	0xbe125faf	-0.14294313
195	0xbe146855	-0.14492925
196	0xbe1085b2	-0.141135
197	0xbe11bb24	-0.14231545
198	0xbe0cd6c2	-0.13753799
199	0xbe0c314b	-0.13690679
200	0xbe1f90a6	-0.15582523
201	0xbe16c722	-0.147244
202	0xbe0308cd	-0.12796326
203	0xbe0a68e8	-0.13516581
204	0xbe119109	-0.14215483
205	0xbe1a95bb	-0.1509618
206	0xbe1aba95	-0.15110238
207	0xbe1f5ca8	-0.1556269
208	0xbe161263	-0.14655451
209	0xbe0b40cf	-0.13598941
210	0xbe065d11	-0.1312144
211	0xbe093bd3	-0.13401727
212	0xbe1f2b2b	-0.15543811
213	0xbe1a8f65	-0.15093763
214	0xbe1354b9	-0.14387788
215	0xbe00fce3	-0.12596469
216	0xbe0e6652	-0.1390622
217	0xbe14fac8	-0.1454879
218	0xbe0a0311	-0.13477732
219	0xbe16f7ed	-0.14743014
220	0xbe1b4fc4	-0.15167147
221	0xbe04dc01	-0.1297455
222	0xbe182c84	-0.14860731
223	0xbe14071a	-0.14455834
224	0xbe20fa38	-0.15720451
225	0xbe05d95e	-0.130712
226	0xbe0468f6	-0.12930664
227	0xbe0ad196	-0.13556513
228	0xbe1c1f5c	-0.15246338
229	0xbe20d962	-0.15707925
230	0xbe1dfff6	-0.15429673
231	0xbe049b23	-0.12949805
232	0xbe08ef3a	-0.13372508
233	0xbe030b60	-0.12797308
234	0xbe083848	-0.1330272
235	0xbe0ca1ed	-0.13733645
236	0xbe10eb31	-0.14152218
237	0xbe1d27f4	-0.15347272
238	0xbe1eba1a	-0.1550068
239	0xbe200118	-0.15625417
240	0xbe0a154c	-0.13484687
241	0xbe18c335	-0.14918216
242	0xbe140a59	-0.14457072
243	0xbe1a23bf	-0.15052699
244	0xbe13bb18	-0.1442684
245	0xbe1c3ac0	-0.15256786
246	0xbe1b691d	-0.15176816
247	0xbe0b5986	-0.13608369
248	0xbe159a2b	-0.14609592
249	0xbe06b22b	-0.13153903
250	0xbe15fce7	-0.14647256
251	0xbe1cb7c0	-0.1530447
252	0xbe13a2cb	-0.1441757
253	0xbe18a8fb	-0.14908211
254	0xbe15bede	-0.14623591
255	0xbe2046f8	-0.15652072

module.model.0.bias f4 [64]
0	0x3c3ac1aa	0.011398712
1	0x3bd2f700	0.006438136
2	0xbc320a84	-0.010866765
3	0xbd4df49c	-0.050282106
4	0xba1098b2	-0.00055159174
5	0x3c7d0961	0.015444131
6	0xbb8e6fa9	-0.004346807
7	0xbc96ed42	-0.01842368
8	0xbd271f88	-0.040801555
9	0xbc580fcf	-0.013187363
10	0xbc358458	-0.0110789165
11	0x3a47cea9	0.00076220423
12	0xbd8b6f28	-0.06808311
13	0xbc811081	-0.01575494
14	0xbcc21b9f	-0.023694811
15	0xbcb6fbe1	-0.022336902
16	0x3c5fb95c	0.013655033
17	0x3d6d2c25	0.057903428
18	0x3c221623	0.009892973
19	0x3d4b67d3	0.04965956
20	0x3b5bedf4	0.003355858
21	0xbaddf500	-0.0016933978
22	0xbcd52593	-0.026018893
23	0x3c721c68	0.01477728
24	0x3c335958	0.010946594
25	0xbce58de8	-0.028021768
26	0xbcb92b41	-0.022603633
27	0x3d1d1b88	0.038356334
28	0x3c144461	0.009049506
29	0x3d40f29e	0.047106378
30	0x3b986fb2	0.004651987
31	0x3cd377f4	0.025814034
32	0xbcd648a7	-0.02615769
33	0x3cb97a1e	0.022641238
34	0xbc674f58	-0.014118038
35	0x3c9c537f	0.019082783
36	0x3d21164e	0.039327912
37	0x3b7d4a16	0.0038648895
38	0xbcab470c	-0.020907901
39	0x3b64142d	0.0034802065
40	0x3bf5ee5a	0.0075052204
41	0xbd4e2d78	-0.05033633
42	0x3d030d59	0.03199515
43	0x3d3375b1	0.04381341
44	0x3bef1eba	0.007297364
45	0x3d92ebab	0.07173856
46	0xbb8268b4	-0.0039797667
47	0x3b2f72c4	0.0026771287
48	0x3c5202b0	0.012818024
49	0xbab1ce01	-0.0013565422
50	0xbc1e88a0	-0.009676129
51	0xbcfb2ec5	-0.03066195
52	0xbcb90f71	-0.02259037
53	0xbbbbe7bb	-0.0057344115
54	0x3ce1bb61	0.02755517
55	0x3d4daf7c	0.050216183
56	0xbd81b713	-0.06333747
57	0x3cb525d7	0.02211277
58	0x3c8c125f	0.017098604
59	0xbcda0df8	-0.026617989
60	0x3b04f1eb	0.0020285796
61	0x3ca86273	0.020554757
62	0xbc8cd031	-0.017189117
63	0xbcbe946b	-0.02326413

module.model.1.weight f4 [64]
0	0x3f89e3bc	1.0772624
1	0x3f86c3e7	1.0528535
2	0x3f676688	0.90390825
3	0x3f5e08d9	0.8673225
4	0x3f508c76	0.81464326
5	0x3f7bc713	0.9835064
6	0x3f49a114	0.7876141
7	0x3f3148fb	0.69251984
8	0x3f7fb4a1	0.9988499
9	0x3f534f8a	0.8254324
10	0x3f6d679a	0.9273621
11	0x3f39781a	0.72448885
12	0x3f21466e	0.6299809
13	0x3f571619	0.84018093
14	0x3f1bd1a3	0.60866755
15	0x3f5bb749	0.85826546
16	0x3f87ae38	1.0600042
17	0x3f971d1a	1.1805756
18	0x3f7deed8	0.9919257
19	0x3f3871a6	0.72048414
20	0x3f679d8b	0.90474766
21	0x3f4dc5e5	0.8038009
22	0x3f5c4fc5	0.8605922
23	0x3f3ef266	0.7458862
24	0x3f85b01e	1.0444372
25	0x3f4adc09	0.79241997
26	0x3f5783c2	0.8418542
27	0x3f4f8483	0.8106157
28	0x3f4a4165	0.79006034
29	0x3f651b75	0.8949502
30	0x3f5e83d8	0.8691993
31	0x3f2a7f92	0.66600907
32	0x3f734d4f	0.9503984
33	0x3f6277f0	0.8846426
34	0x3f3ee879	0.74573475
35	0x3f599980	0.8499985
36	0x3f4d2353	0.80132025
37	0x3f39e055	0.7260793
38	0x3f2edd55	0.68306476
39	0x3f748ccf	0.95527357
40	0x3f1bf71b	0.6092393
41	0x3f3f544d	0.7473801
42	0x3f43f039	0.76538426
43	0x3f67dcda	0.9057137
44	0x3f922f1b	1.1420625
45	0x3f3e19b5	0.74257976
46	0x3f218e21	0.63107497
47	0x3f9e0eda	1.2348282
48	0x3f45d7fe	0.772827
49	0x3f64e335	0.8940919
50	0x3f8e17ce	1.1101015
51	0x3f7ef02e	0.99585235
52	0x3f683407	0.9070439
53	0x3f7b0d9b	0.98067635
54	0x3f3a863a	0.72861063
55	0x3f5cf667	0.8631348
56	0x3f5b53fb	0.8567502
57	0x3f51bc4b	0.8192794
58	0x3f487a85	0.7831195
59	0x3f6243a9	0.8838449
60	0x3f4e752c	0.8064754
61	0x3f4c5a9c	0.7982576
62	0x3f6e757f	0.93148035
63	0x3f7e8e23	0.99435633

module.model.1.bias f4 [64]
0	0x3e2baee3	0.16765933
1	0x3e0d19dd	0.13779397
2	0x3cd7a66d	0.026324475
3	0xbe144eeb	-0.1448323
4	0xbdc53e25	-0.09630994
5	0xbd7f886d	-0.062385965
6	0xbe388c7e	-0.18022344
7	0xbe2e876c	-0.17043847
8	0x3db1057e	0.08643626
9	0x3cd651bf	0.026162026
10	0xbcd1e66c	-0.025622569
11	0xbe1f1be4	-0.15537983
12	0xbe14c38d	-0.14527722
13	0xbc96d0bb	-0.018410077
14	0xbe206cbf	-0.15666483
15	0xbd08cc67	-0.03339806
16	0x3dc5ab85	0.096518554
17	0x3ec4c234	0.38429415
18	0x3e01353a	0.1261796
19	0xbdfe2c51	-0.124107964
20	0x3d02c58e	0.031926684
21	0xbc79b70d	-0.015241397
22	0x3b50b754	0.0031847553
23	0xbde5e268	-0.11224824
24	0x3db82303	0.08991053
25	0xbdf6de97	-0.120541744
26	0xbdc4e253	-0.096134804
27	0xbd802f74	-0.06259051
28	0xbc8e7da9	-0.017393904
29	0xbe4c0c38	-0.19926536
30	0xbd5fb107	-0.054612186
31	0xbe10e468	-0.1414963
32	0x3d2f520e	0.042802863
33	0xbded8433	-0.115974806
34	0xbe2d26e6	-0.1690937
35	0x3e159e8b	0.1461126
36	0x3d72b330	0.059252918
37	0xbe11ad59	-0.14226283
38	0xbe29e33d	-0.16590591
39	0xbd1cb5b9	-0.03825924
40	0xbd836b50	-0.064169526
41	0xbdfdfd8a	-0.12401874
42	0xbe250abb	-0.16117375
43	0x3df4d3cf	0.11954462
44	0x3e3a7cb8	0.18211639
45	0xbe00d010	-0.1257937
46	0xbe5ffa5b	-0.21872847
47	0x3e087cee	0.13328907
48	0xbd0c48c8	-0.034249097
49	0x3d46aa2a	0.048502125
50	0x3de89acf	0.113576524
51	0x3e4a18b6	0.19735989
52	0x3d1981db	0.037477355
53	0x3dbfab33	0.093588255
54	0xbd103625	-0.035207886
55	0xbd184d75	-0.037183244
56	0xbdd6a695	-0.10480992
57	0xbe0d9326	-0.13825664
58	0x3d4b6d72	0.049664922
59	0xbd4294fe	-0.04750537
60	0xbb8bc847	-0.0042658183
61	0xbe25348d	-0.16133328
62	0x3ca5b12b	0.020226082
63	0x3daf5b3b	0.08562323

module.model.1.running_mean f4 [64]
0	0xc19fea39	-19.989367
1	0xc224f086	-41.234886
2	0xc1496e00	-12.589355
3	0x41801835	16.01182
4	0xc1859812	-16.699253
5	0x418f8eba	17.94469
6	0xc250fc0e	-52.246147
7	0xc1bcdc7c	-23.607658
8	0x418fec38	17.990341
9	0x41f7dc51	30.982576
10	0x4238224b	46.03349
11	0xc15a5b1e	-13.647245
12	0xc1ced60b	-25.854513
13	0x41def14a	27.867817
14	0xc1284b83	-10.5184355
15	0x41aa8d9a	21.319141
16	0x423521bb	45.28294
17	0xbffd148e	-1.9771898
18	0xc225d075	-41.45357
19	0xc1bce1a2	-23.610172
20	0xc1cca0d9	-25.578539
21	0x40858772	4.172784
22	0xc08072a2	-4.0139933
23	0xc1780661	-15.501557
24	0xc1c5ed18	-24.740768
25	0xc23d6ed0	-47.358215
26	0xc0fed62b	-7.9636436
27	0xc11c85b1	-9.7826395
28	0xc0f70e3d	-7.720488
29	0xc1a58909	-20.691912
30	0xc1d7d1d3	-26.977453
31	0xc19d4012	-19.656284
32	0xc1795267	-15.582618
33	0x41a05c2e	20.04501
34	0x41ba406a	23.281452
35	0x41ea51c2	29.28992
36	0xc1847ced	-16.560999
37	0x41a595c8	20.698135
38	0x41914708	18.159683
39	0x41a546cb	20.659567
40	0xc127c8bb	-10.486506
41	0xc1ff79c6	-31.93446
42	0x41b18263	22.188665
43	0x40a4458d	5.13349
44	0x423bf2a1	46.986942
45	0x41134f9b	9.206935
46	0x40fd6612	7.9187098
47	0xc2452e47	-49.295193
48	0xc16808f4	-14.502186
49	0x419986aa	19.190754
50	0x4218a483	38.160656
51	0xc28e9239	-71.28559
52	0x416d272b	14.8220625
53	0xc203f1fa	-32.986305
54	0xc2373370	-45.800232
55	0xc2060c7d	-33.512196
56	0xc23ebb88	-47.683136
57	0xc1778f33	-15.472461
58	0xc2266e91	-41.607975
59	0x40c0b027	6.021503
60	0x4201db3e	32.464104
61	0xc2045919	-33.08701
62	0x42528947	52.63406
63	0x4083ea53	4.122354

module.model.1.running_var f4 [64]
0	0x443eadb4	762.7141
1	0x45b4cdf6	5785.745
2	0x458e1228	4546.2695
3	0x445cf546	883.8324
4	0x44c9fa6b	1615.8256
5	0x461cd0f3	10036.237
6	0x458911db	4386.232
7	0x45a41c8f	5251.57
8	0x44451a6f	788.413
9	0x45294edb	2708.9285
10	0x4514fdf6	2383.8726
11	0x44f8ac01	1989.3751
12	0x457c5cdd	4037.804
13	0x458291ae	4178.21
14	0x451b3846	2483.517
15	0x4597049c	4832.576
16	0x45827fac	4175.959
17	0x44672019	924.5015
18	0x44e23eba	1809.9602
19	0x4501b359	2075.2092
20	0x4586cf21	4313.891
21	0x459c5985	5003.19
22	0x4510b040	2315.0156
23	0x4588c849	4377.0356
24	0x44761fde	984.4979
25	0x45e35281	7274.313
26	0x450b28d4	2226.5518
27	0x456f4bf6	3828.7476
28	0x4504df0d	2125.9407
29	0x4512d445	2349.2668
30	0x44c050fb	1538.5306
31	0x454f4df0	3316.871
32	0x443b4818	749.12646
33	0x44c5d62b	1582.6927
34	0x45d4d9f7	6811.2456
35	0x44e88e35	1860.444
36	0x461d716e	10076.357
37	0x450c17ea	2241.4946
38	0x45c05564	6154.674
39	0x462b913a	10980.307
40	0x45d668ab	6861.0835
41	0x451c6021	2502.008
42	0x4495cca7	1198.3954
43	0x456d6e49	3798.8928
44	0x4480d59c	1030.6753
45	0x4604227b	8456.62
46	0x458a25e3	4420.736
47	0x445b97db	878.37274
48	0x4611cb03	9330.753
49	0x44d09cd7	1668.9012
50	0x4525596b	2645.5886
51	0x44dc0eee	1760.4666
52	0x4586c63f	4312.781
53	0x44f058f4	1922.7798
54	0x44e38d15	1820.4088
55	0x452b7e03	2743.8757
56	0x44ba7307	1491.5946
57	0x4565ea1c	3678.6318
58	0x451efeca	2543.9243
59	0x44d7f390	1727.6113
60	0x44fcdba5	2022.8639
61	0x45391de0	2961.8672
62	0x44e2d1b4	1814.5532
63	0x449680ec	1204.0288

module.model.3.weight f4 [64, 64]
0	0xbd3100da	-0.043213703
1	0x3e47aec5	0.19500263
2	0xbb9e1882	-0.004824699
3	0x3dfc5d76	0.12322514
4	0x3d3cb0fb	0.04606722
5	0xbe44aef3	-0.19207363
6	0x3e62ec46	0.22160444
7	0x3d9aeca7	0.07564669
8	0x3cc95b15	0.024579564
9	0x3d27a90b	0.040932696
10	0xbddb78fd	-0.10716436
11	0xbcc98c13	-0.024602925
12	0x3e2e78a2	0.17038205
13	0x3d82449e	0.06360744
14	0x3e187ecc	0.14892119
15	0x3c581271	0.0131879905
16	0x3c4e6506	0.012597328
17	0x3ce9e690	0.028552324
18	0x3d8de3f1	0.06928242
19	0x3e01d9d9	0.12680759
20	0x3e4d0bfe	0.20024106
21	0xbde0e660	-0.109814405
22	0xbd385056	-0.04499849
23	0x3dc1cc44	0.09462789
24	0xbb3d6808	-0.0028901119
25	0x3e047448	0.12934983
26	0x3c3b860b	0.011445533
27	0xbda86dbd	-0.08224056
28	0xbc83aefe	-0.016074654
29	0xbe3fbf18	-0.1872524
30	0xbae4bcd0	-0.001745129
31	0xbaf2c320	-0.0018521287
32	0x3d6a3521	0.057179574
33	0xbca3cb51	-0.01999441
34	0xbe1531d4	-0.14569789
35	0xbb8b164b	-0.004244601
36	0x3d86a037	0.06573527
37	0xbdf96a63	-0.12178495
38	0xbcd13176	-0.02553628
39	0x3d812473	0.0630578
40	0x3d4c1e6f	0.04983371
41	0x3d3beaac	0.045878097
42	0xbe4e56b4	-0.20150262
43	0xbb130dd6	-0.0022438667
44	0xbcd925bf	-0.026507257
45	0x3db62f64	0.08895758
46	0x3dc6d7ad	0.09709106
47	0x3db6cce0	0.089257956
48	0x3e527111	0.20550944
49	0x3dc3ea41	0.09566165
50	0xbe42cd8d	-0.19023724
51	0xbd9023f2	-0.07038106
52	0x3b944136	0.0045243753
53	0x3daea8d5	0.08528296
54	0x3e06e714	0.13174087
55	0x3d5644ce	0.05231171
56	0x3d64616e	0.05575698
57	0x3e53122c	0.20612401
58	0xbdd436ab	-0.103619896
59	0x3e220b7a	0.1582469
60	0xbdcc7813	-0.0998384
61	0x3dbd33e7	0.09238415
62	0xbd5eec35	-0.054424483
63	0x3e258b93	0.16166525
64	0x3de0c102	0.10974313
65	0xbe90e6c4	-0.2830106
66	0xbbcb0f15	-0.0061968663
67	0x3d8d9e0b	0.0691491
68	0xbd90ede6	-0.070766255
69	0xbd3c48af	-0.045967754
70	0xbdc8c265	-0.09802703
71	0xbd33d646	-0.04390552
72	0x3deb9755	0.11503474
73	0x3c919a84	0.017773874
74	0xbdc1f36c	-0.09470257
75	0xbba729ef	-0.0051014344
76	0x3d133547	0.03593948
77	0x3c026b8c	0.0079602115
78	0x3d9c3b2a	0.07628472
79	0xbde69826	-0.11259489
80	0xbd239cd9	-0.039944503
81	0xbdac87bd	-0.084243275
82	0x3e04becd	0.1296341
83	0xbe09cd7b	-0.13457291
84	0xbbc07545	-0.0058733546
85	0x3d6130cd	0.05497818
86	0xbe493175	-0.19647773
87	0x3d68ace2	0.0568055
88	0xbdeef375	-0.116675295
89	0x3cc8e3ff	0.02452278
90	0xbd43c45e	-0.047794692
91	0x3df802dc	0.121099204
92	0xbd302292	-0.04300172
93	0x3dcad067	0.09903031
94	0xbdf456cc	-0.11930618
95	0x3c5f850b	0.01364256
96	0xbe0675cb	-0.13130872
97	0xbe0ff798	-0.14059293
98	0x3dbd729e	0.09250377
99	0xbd300ef3	-0.042983007
100	0xbddd556c	-0.108073086
101	0xbe3dd52c	-0.1853835
102	0xbe0c7136	-0.13715062
103	0xbb58b499	-0.003306663
104	0xbb8f15c7	-0.0043666097
105	0xbe20bde5	-0.15697439
106	0x3cc8669d	0.024462992
107	0xbba4a3c4	-0.005024405
108	0x3e1ca6ad	0.15297957
109	0xbdb9d10d	-0.090730764
110	0xbcf8da96	-0.030377667
111	0xbd6c2020	-0.057647824
112	0x3d4f72ce	0.050646596
113	0x3dad2328	0.08453971
114	0xbe8e4ea5	-0.27794376
115	0x3d81313d	0.063082196
116	0x3bc6e50f	0.0060697864
117	0x3e4fc261	0.20288993
118	0xbdec822e	-0.11548267
119	0xbe485bfb	-0.19566338
120	0x3e0d2e5b	0.13787214
121	0xbd76de05	-0.060270328
122	0x3d293038	0.04130575
123	0xbe6da41f	-0.23207138
124	0x3e0ebab1	0.13938405
125	0xbe5652fd	-0.20930095
126	0x3de664bb	0.112496816
127	0xbcf47c7f	-0.02984452
128	0x3e22f832	0.15914991
129	0xbcc5b50c	-0.024134181
130	0x3e0dd94f	0.13852428
131	0x3cf5f432	0.030023668
132	0x3e057c77	0.13035761
133	0xbbff0045	-0.0077820146
134	0x3e0c4700	0.1369896
135	0xbdd2f189	-0.102999754
136	0xbe0c27ba	-0.1368703
137	0x3e181307	0.14851008
138	0xbdddc85f	-0.108292334
139	0x3d8b9c91	0.06816972
140	0x3ca8d0fd	0.020607466
141	0x3c8ff47d	0.017572636
142	0x3cbdfd5a	0.023192097
143	0xbc76113e	-0.015018759
144	0x3e0826de	0.13296077
145	0xbda9637d	-0.08270929
146	0x3c662acb	0.014048289
147	0xbc9d746a	-0.01922055
148	0x3ce7f41e	0.028314646
149	0x3d6f6104	0.05844213
150	0xbe11c6fd	-0.14236064
151	0x3c8c804b	0.017151019
152	0x3dccc14a	0.099978045
153	0x3e173b25	0.14768656
154	0xbd710a5c	-0.05884777
155	0x3e263ca8	0.16234076
156	0xbdc4b4d1	-0.096048005
157	0x3cb4f516	0.022089522
158	0xbd3f887d	-0.046761025
159	0x3cfed5b9	0.03110777
160	0xbe2d8630	-0.1694572
161	0x3cbe1a9f	0.023206053
162	0xbdc67ec5	-0.09692148
163	0x3e104dfc	0.14092249
164	0xbdf0dd47	-0.11760955
165	0xbd5ce744	-0.05393149
166	0xbda00d44	-0.0781503
167	0x3ccd32c5	0.025048623
168	0x3cc8eaef	0.024526088
169	0xbdc1fc34	-0.09471932
170	0xbe06e3ab	-0.13172786
171	0xbd984f60	-0.074370146
172	0xbd3faaa9	-0.046793614
173	0xb9a288b2	-0.00031000894
174	0x3e01a5ac	0.12660855
175	0xbd91cb15	-0.07118813
176	0xbd0822fa	-0.03323648
177	0x3d611791	0.054954115
178	0xbe865cab	-0.26242575
179	0xbda113b0	-0.07865083
180	0x3d236a5f	0.039896365
181	0x3b1277c3	0.0022349216
182	0xbe10d1db	-0.14142554
183	0x3d56a4b5	0.05240317
184	0x3ddb23f9	0.107002206
185	0x3d2b6398	0.041843027
186	0x3de35454	0.11100069
187	0xbdd31c76	-0.10308163
188	0x3e09f483	0.1347218
189	0xbd25afd1	-0.040450875
190	0x3e8bfe9b	0.27342686
191	0x3dea7508	0.11448103
192	0xbdbfc75b	-0.09364196
193	0x3c55dee1	0.013053627
194	0x3d281fce	0.041045956
195	0xbcf54c9c	-0.029943757
196	0xbdacb484	-0.08432868
197	0x3d25cd11	0.04047877
198	0x3c6632e6	0.014050221
199	0x3d259974	0.040429547
200	0x3e5c9b77	0.2154368
201	0x3cf9f18b	0.030510684
202	0x3d932b34	0.07185975
203	0x3d9b0916	0.075700924
204	0xbe0d438c	-0.13795298
205	0xbdc37ae0	-0.09544921
206	0xbc2fb0ca	-0.010723302
207	0x3d46610d	0.0484324
208	0xb8c88b38	-9.562675e-05
209	0xbe47915d	-0.19489045
210	0x3e2e39bf	0.17014216
211	0x3d9bf6a6	0.07615404
212	0x3db62672	0.088940516
213	0xbcb959c8	-0.022625819
214	0xbe2bedff	-0.16790007
215	0x3d025e4d	0.031828213
216	0xbd9dc14a	-0.077028826
217	0xbdaadc43	-0.08342793
218	0xbe853d0d	-0.2602314
219	0x3c5243f9	0.012833589
220	0xbd6d43a6	-0.057925843
221	0xbd0455a7	-0.032308247
222	0x3de61df7	0.11236184
223	0x3ca3840a	0.019960422
224	0xbd7bcdb2	-0.061475463
225	0x3cb514a9	0.022104578
226	0xbb59f134	-0.003325534
227	0xba9b69ca	-0.0011857089
228	0xbdb48bff	-0.08815765
229	0xbdefa65e	-0.11701654
230	0xbd4bda4e	-0.04976874
231	0x3d044501	0.03229237
232	0x3e1ee3da	0.15516606
233	0x3d1b0441	0.037845854
234	0x3d96b2f9	0.07358355
235	0x3d9a96c1	0.07548285
236	0xbe7a0daf	-0.24419282
237	0xbda8e367	-0.082464986
238	0xbc06eac7	-0.008234686
239	0x3dc02619	0.093822666
240	0xbc7507e8	-0.014955498
241	0x3d101f6a	0.03518621
242	0xbc713c2c	-0.014723819
243	0x3dc7ea45	0.0976148
244	0x3e50b6b1	0.20382191
245	0xbe5196da	-0.20467702
246	0x3e642e5a	0.22283307
247	0x3e33cdda	0.17558995
248	0xbbddf468	-0.0067735203
249	0x3b7231c3	0.003695593
250	0x3d5dd8f9	0.054162
251	0xbe12ecbb	-0.14348118
252	0xbd96a116	-0.073549435
253	0xbbcae31b	-0.006191624
254	0x3d91cf43	0.0711961
255	0xbc974c72	-0.01846907

module.model.3.bias f4 [64]
0	0x3d5004c3	0.05078579
1	0xbce63c93	-0.028105056
2	0xbcc42cb2	-0.023947094
3	0xbbd9ca91	-0.0066464623
4	0xbbc706c3	-0.006073804
5	0xbcd9b32b	-0.026574692
6	0x3d1443a2	0.036197312
7	0xbdf5d43b	-0.120033704
8	0x3df07b8b	0.11742314
9	0x3d799830	0.060936153
10	0xbdb77d69	-0.08959467
11	0xbd01ead7	-0.0317181
12	0x3d239624	0.039938107
13	0xbd200429	-0.039066467
14	0xbd9c5413	-0.076332234
15	0xbda488ab	-0.0803388
16	0xbd559e38	-0.052152842
17	0x3d079d6d	0.033109117
18	0x3ba3d9b6	0.0050003184
19	0x3dc1e967	0.09468346
20	0xbddca4e7	-0.1077364
21	0x3c57ceda	0.013171876
22	0xb984e822	-0.00025349954
23	0xbdf21b1d	-0.11821578
24	0x3c863c5d	0.016386205
25	0x3daea60b	0.08527764
26	0x3d57aa7c	0.05265282
27	0xbd4e2848	-0.050331384
28	0x3d152788	0.036414653
29	0xbd4f7716	-0.05065068
30	0x3ddd1206	0.10794453
31	0xbe1c71c7	-0.15277778
32	0xbe0ef6bb	-0.13961308
33	0x3dee44e4	0.116342336
34	0xbd18469e	-0.03717672
35	0xbcc6924d	-0.024239684
36	0x3d64babf	0.055842157
37	0xbdbaa5ae	-0.09113632
38	0xbdfc36fb	-0.12315174
39	0x3da637f5	0.08116142
40	0xbd4646a9	-0.04840723
41	0xbe1e5c8f	-0.15464996
42	0xbd7c8590	-0.061650813
43	0xbdb20b43	-0.08693554
44	0xbc98a765	-0.018634507
45	0xbd00a277	-0.03140494
46	0xbdb9a5eb	-0.090648495
47	0xbdb4cade	-0.08827756
48	0x3d702d9e	0.058637254
49	0xbd3e722f	-0.046495613
50	0xbda45ccd	-0.08025513
51	0x3d0d48d9	0.0344933
52	0xbbf0b8d3	-0.0073462515
53	0xbe2cca34	-0.1687401
54	0xbd910d3f	-0.070826046
55	0xbd05d798	-0.03267631
56	0x3de3a765	0.11115912
57	0x3d399be6	0.045314692
58	0x3dce00f7	0.10058778
59	0xbe232bc9	-0.15934671
60	0xbc5e5455	-0.013569911
61	0x3dec6b31	0.11543883
62	0xbd92da9a	-0.07170601
63	0x3d2eacbc	0.0426452

module.model.4.weight f4 [64]
0	0x3f65e726	0.8980583
1	0x3f882bd1	1.0638372
2	0x3f54e9db	0.83169335
3	0x3f5d3df9	0.8642269
4	0x3f5d8d86	0.8654407
5	0x3f61d4c6	0.8821529
6	0x3f6f8f23	0.93577784
7	0x3f37f269	0.71854264
8	0x3f3489ca	0.7052275
9	0x3f309cf4	0.6898949
10	0x3f728ae9	0.9474321
11	0x3f3743e1	0.7158795
12	0x3f82c407	1.0216073
13	0x3f43fb8c	0.76555705
14	0x3f5369a7	0.8258309
15	0x3f4104e1	0.7539807
16	0x3f90379d	1.1266972
17	0x3f90d7bb	1.1315836
18	0x3f8e042e	1.1095026
19	0x3f5aa5f7	0.8540949
20	0x3f3a894e	0.7286576
21	0x3f542c19	0.8287979
22	0x3f55fe1d	0.8359087
23	0x3f6a6b11	0.9156962
24	0x3f6838e9	0.9071184
25	0x3f3ff625	0.7498496
26	0x3f346971	0.7047339
27	0x3f43874e	0.76378334
28	0x3f3c80c4	0.7363398
29	0x3f86dbe3	1.0535854
30	0x3f2488b9	0.6427112
31	0x3f6dd1ae	0.9289807
32	0x3f4a9a70	0.791419
33	0x3f7053f6	0.93878114
34	0x3f69034f	0.91020674
35	0x3f9902e9	1.1954013
36	0x3f438dc9	0.7638822
37	0x3f4047ca	0.7510954
38	0x3f7a5a5f	0.97794145
39	0x3f097e7b	0.5370862
40	0x3f74dab6	0.95646226
41	0x3f74edab	0.9567515
42	0x3f42bad6	0.7606634
43	0x3f6be425	0.92144996
44	0x3f1f3a8b	0.62198704
45	0x3f67e31e	0.9058093
46	0x3f65662b	0.8960902
47	0x3f645d5b	0.8920495
48	0x3f61769f	0.88071626
49	0x3f897d1a	1.0741303
50	0x3f4f315d	0.809347
51	0x3f78eeca	0.97239363
52	0x3f8dc8cc	1.1076903
53	0x3f307b13	0.68937796
54	0x3f4bb36b	0.79570645
55	0x3f4c4af8	0.79801893
56	0x3f47a1a9	0.7798105
57	0x3f80ed33	1.0072387
58	0x3f79d09e	0.9758395
59	0x3f55b668	0.83481455
60	0x3f4087ea	0.7520739
61	0x3f6916ae	0.9105023
62	0x3f51162e	0.8167447
63	0x3f8577f3	1.0427231

module.model.4.bias f4 [64]
0	0x3c7441ca	0.014908263
1	0x3e6ac171	0.22925355
2	0xbd9ea100	-0.07745552
3	0x3c954185	0.018219719
4	0xbd65015d	-0.055909503
5	0x3d1180fd	0.035523403
6	0x3d66df83	0.0563655
7	0xbd856f35	-0.06515352
8	0xbd581fb2	-0.052764602
9	0xbc5d1576	-0.013493886
10	0x3df39f68	0.11895639
11	0xbe2f6785	-0.17129333
12	0x3e1a7b80	0.15086174
13	0xbd24ba89	-0.040216956
14	0x3e07808e	0.13232633
15	0xbd155daf	-0.036466297
16	0x3d865e67	0.065609746
17	0x3edd5de9	0.4323571
18	0x3e20d302	0.15705493
19	0x3c58e1f9	0.01323747
20	0xbd600eab	-0.05470149
21	0x3d597c76	0.05309721
22	0xbc5736ff	-0.013135671
23	0x3da0e97a	0.07857032
24	0xbca37db2	-0.019957397
25	0xbe7cb1b5	-0.24677165
26	0xbe1ff0b3	-0.15619163
27	0xbd8e6456	-0.06952731
28	0xbd8fd0df	-0.07022261
29	0x3d850202	0.064945236
30	0xbdffaf1c	-0.12484571
31	0x3cac0238	0.020997152
32	0xbd8d422e	-0.068973884
33	0x3dee265f	0.116284125
34	0x3cbfb2b8	0.02340065
35	0x3e7cb6e3	0.24679141
36	0x3d6e89f4	0.05823703
37	0x3d609a35	0.054834563
38	0x3e0d4987	0.1379758
39	0xbd9f1d7f	-0.07769298
40	0x3d2c5e39	0.042082045
41	0xbb8e3264	-0.004339503
42	0xbd74f15b	-0.059800487
43	0x3bbda645	0.005787643
44	0xbe37469f	-0.17898034
45	0x3deff6b2	0.11716975
46	0x3d6ea923	0.05826677
47	0x3d0304e9	0.031987105
48	0x3d21182f	0.039329704
49	0xbcfae7f8	-0.03062819
50	0x3d34169f	0.043966886
51	0xbbf02b2e	-0.007329366
52	0x3dd8cde7	0.10586148
53	0xbc1f1e5a	-0.009711826
54	0xbe08bc5f	-0.13353108
55	0xbdbbff43	-0.09179547
56	0x3d8da819	0.06916828
57	0x3e1cd4de	0.15315577
58	0x3d6a5faa	0.05722014
59	0x3d3ec561	0.046574954
60	0x3d252c06	0.040325187
61	0xbd55a5e9	-0.052160177
62	0x3c9fa204	0.019486435
63	0x3e793a6b	0.24338691

module.model.4.running_mean f4 [64]
0	0x3f073b91	0.52825266
1	0xbf184fac	-0.5949657
2	0x3d2ee44c	0.04269819
3	0xbd987096	-0.07443349
4	0x3e133d69	0.14378895
5	0x3df24a56	0.11830585
6	0xbd7fc862	-0.06244696
7	0xbf2fe03e	-0.6870154
8	0x3f185195	0.59499484
9	0x3e874992	0.26423317
10	0x3e8b6d19	0.27231672
11	0xbe62b6ca	-0.22140041
12	0xbe8bf34c	-0.27334058
13	0x3e10a2d0	0.14124608
14	0x3d694873	0.05695386
15	0xbf026063	-0.50928324
16	0x3e551070	0.20807052
17	0x3d3d74aa	0.046253838
18	0x3d22c659	0.03973994
19	0x3efd0f4a	0.49425727
20	0x3d8fe8b5	0.07026807
21	0xbe00b40a	-0.1256868
22	0xbf2be952	-0.67152894
23	0x3d998472	0.07495965
24	0x3da52646	0.08063941
25	0xbedea76c	-0.43487108
26	0xbd54f486	-0.05199101
27	0x3e5779c6	0.21042547
28	0x3db9941b	0.09061452
29	0xbf0170df	-0.5056285
30	0x3f5f1104	0.8713534
31	0xbf53a5fa	-0.82675135
32	0xbf789647	-0.97104305
33	0x3b5ffbfb	0.0034177292
34	0x3de74edf	0.1129434
35	0x3e00eaca	0.12589565
36	0x3e8abf94	0.27099288
37	0x3d462aa4	0.04838051
38	0x3ed6ce9b	0.41954502
39	0x3ee9a5bb	0.45634255
40	0x3c850727	0.016238762
41	0xbe98d33a	-0.29848653
42	0xbe297af7	-0.16550814
43	0xbc6bb923	-0.014387402
44	0x3e26864d	0.16262169
45	0xbdf6dd06	-0.120538756
46	0xbe7f851b	-0.2495312
47	0x3cd622aa	0.026139576
48	0xbea58c6d	-0.323337
49	0x3e8b22ff	0.27175137
50	0xbddca1a3	-0.10773017
51	0xbd82e2de	-0.06390928
52	0xbeafde4a	-0.3434928
53	0xbf94349d	-1.1578556
54	0xbcdeaafe	-0.027181145
55	0xbe992044	-0.2990743
56	0x3e929092	0.28625923
57	0xbe039dae	-0.12853119
58	0xbe19d696	-0.15023264
59	0xbe618f22	-0.22027257
60	0x3c093fff	0.008377074
61	0xbef25c33	-0.47335967
62	0x3cdb9a52	0.026806984
63	0xbd54f042	-0.05198694

module.model.4.running_var f4 [64]
0	0x3f515903	0.81776446
1	0x3f3552b5	0.70829326
2	0x3f568a75	0.8380502
3	0x3f0ea1f4	0.5571587
4	0x3effef6b	0.4998735
5	0x3f88f3ef	1.0699443
6	0x3f86d155	1.0532633
7	0x3f0461eb	0.5171191
8	0x3f553431	0.8328276
9	0x3f97b96e	1.1853464
10	0x3f7a213c	0.9770696
11	0x3f69aa39	0.91275364
12	0x3f4581ec	0.7715137
13	0x3f6e5269	0.930945
14	0x3f964e8c	1.1742721
15	0x3fa63bb6	1.2986972
16	0x3f058a5c	0.52164245
17	0x3cd1e342	0.02562106
18	0x3f87f8fb	1.0622858
19	0x3f670508	0.9024205
20	0x3f633e0a	0.8876654
21	0x3fb756a7	1.4323319
22	0x3faa1205	1.3286749
23	0x3f4a89d2	0.7911655
24	0x3f62fc9f	0.8866672
25	0x3f850919	1.0393401
26	0x3f5cdc54	0.86273694
27	0x3f4f66d2	0.81016266
28	0x3f7356b2	0.9505416
29	0x3f3db862	0.7410947
30	0x3f326ace	0.6969422
31	0x3f72d5d1	0.9485751
32	0x3f131d43	0.57466525
33	0x3f86f813	1.0544456
34	0x3f3e7083	0.7439043
35	0x3f38f303	0.72245806
36	0x3ee7d93a	0.45282918
37	0x3f804a84	1.002274
38	0x3f2ab04e	0.6667527
39	0x3f45ba5f	0.77237505
40	0x3f4e97b5	0.80700237
41	0x3f7a9c3f	0.9789466
42	0x3f5ccbbf	0.8624839
43	0x3f8513ca	1.0396664
44	0x3f8bdab9	1.0926124
45	0x3f9176e8	1.1364412
46	0x3f53989e	0.8265475
47	0x3f876ab1	1.0579435
48	0x3f57833f	0.8418464
49	0x3f75b7c3	0.95983523
50	0x3f2efed6	0.683576
51	0x3f8f1b41	1.1180192
52	0x3f580d6e	0.8439549
53	0x3ef7d269	0.48402718
54	0x3f8aceb7	1.0844334
55	0x3f93549f	1.1510199
56	0x3f591dda	0.84811175
57	0x3f7032b3	0.9382736
58	0x3f571101	0.8401032
59	0x3eb72858	0.35772967
60	0x3f662f0d	0.89915544
61	0x3fd978a6	1.6989944
62	0x3fc2ac66	1.5208862
63	0x3f1e0b2b	0.6173579

module.model.6.weight f4 [64, 64]
0	0xbdcb89f9	-0.099384256
1	0x3d1b50d6	0.037918888
2	0x3d5c1cc2	0.053738363
3	0x3dd9a922	0.10627963
4	0x3d6965e1	0.056981925
5	0xbe23fd30	-0.16014552
6	0x3dcfa2bc	0.10138461
7	0x3dd25766	0.10270576
8	0x3da80deb	0.0820578
9	0xbdfa7aa0	-0.1223042
10	0xbdc397fe	-0.095504746
11	0x3d693e8f	0.056944426
12	0xbe1dacab	-0.15397899
13	0x3e06ce9a	0.1316475
14	0xba6df9ce	-0.00090780563
15	0xbde5669b	-0.11201211
16	0xbd8d7975	-0.06907932
17	0xbecc1b49	-0.39864567
18	0x3d84771b	0.0646803
19	0xbe0dd9c2	-0.138526
20	0xbdcfaa5a	-0.10139914
21	0xbd444bd0	-0.047923863
22	0xbcb65bdf	-0.022260604
23	0xbc2a3cbc	-0.010390457
24	0xbcb82ca8	-0.022482231
25	0x3d8a15e4	0.067424566
26	0xbcb50058	-0.02209489
27	0xbdc78789	-0.09742648
28	0xbb777f9e	-0.0037765275
29	0xbd19ae39	-0.037519667
30	0xbc2a6ec1	-0.010402382
31	0x3d9d53c8	0.07681996
32	0x3be06ddd	0.006849034
33	0x3af1423c	0.001840658
34	0xbc9b7232	-0.018975351
35	0xbd99feca	-0.075193
36	0x3dcd2162	0.10016133
37	0xbe0bea3f	-0.13663577
38	0xbdb9f516	-0.090799496
39	0xbdb60031	-0.08886755
40	0xbcb9f725	-0.022700856
41	0x3bb3c75c	0.005486412
42	0x3cc36595	0.023852149
43	0xbe214907	-0.15750514
44	0xbe1fa510	-0.1559031
45	0xbd59e836	-0.05319997
46	0x3da6f609	0.08152396
47	0xbc7e755f	-0.015530913
48	0xbdc32e04	-0.09530261
49	0xbe9f1a66	-0.31074828
50	0x3d542909	0.051796947
51	0xbd657d04	-0.056027427
52	0xbd035d94	-0.032071665
53	0x3e1ea255	0.15491612
54	0xbd7891e2	-0.060686
55	0x3d1dea2d	0.038553406
56	0xbd815b65	-0.0631626
57	0xba0f88ba	-0.0005475391
58	0xbcb54205	-0.022126207
59	0xbdbb4ef9	-0.09145922
60	0x3e6fcbcb	0.23417585
61	0x3db48ce3	0.088159345
62	0xbbc9958b	-0.00615186
63	0xbd1599a7	-0.036523487
64	0x3e224314	0.15845901
65	0xbe814ebf	-0.2525539
66	0xbe4b7c53	-0.19871645
67	0xbcbf243e	-0.023332711
68	0x3a3bf910	0.0007170597
69	0x3e1c4c7f	0.15263556
70	0x3e25847c	0.1616382
71	0xbc887b5b	-0.016660383
72	0x3d2150c1	0.039383654
73	0xbcae11ef	-0.021248786
74	0xbd9be45d	-0.07611916
75	0x3ce14733	0.02749977
76	0xbdec7d03	-0.115472816
77	0x3bab3a88	0.0052254833
78	0x3df25481	0.11832524
79	0xbba9a9ea	-0.005177726
80	0xbc4f4828	-0.012651481
81	0x3eb51704	0.35369122
82	0x3ca8e83b	0.020618549
83	0x3deea92e	0.11653362
84	0xbda704d0	-0.08155215
85	0xbde1d24a	-0.110264376
86	0xbe275ba2	-0.16343549
87	0xbd109d91	-0.035306517
88	0xbd603466	-0.05473747
89	0x3d5136ce	0.051077656
90	0xbe420155	-0.1894582
91	0x3e05bc14	0.13060027
92	0xbe22e2db	-0.15906851
93	0x3b4ae698	0.0030960198
94	0x3d8d3490	0.06894791
95	0xbe0c3b54	-0.13694507
96	0xbd1a4cf4	-0.037671044
97	0xbc8cd987	-0.017193569
98	0x3dabd1e0	0.0838964
99	0x3db18a6a	0.086689785
100	0xbe2043bf	-0.15650843
101	0x3e059702	0.13045886
102	0xbd9a6f2e	-0.07540737
103	0x3e18dc12	0.149277
104	0x3dcf72b8	0.10129303
105	0x3cb2047d	0.021730656
106	0xbd7c1f86	-0.0615535
107	0xbc55dada	-0.013052667
108	0x3d41a2cc	0.047274396
109	0xbdf41f54	-0.11920038
110	0xbe37e3c5	-0.17957981
111	0xbd226fd0	-0.039657414
112	0xbd81e653	-0.06342759
113	0x3e1fda2f	0.15610574
114	0xbdcc9ecf	-0.09991228
115	0x3d95d975	0.07316867
116	0xbc4b41b3	-0.012405801
117	0xbe1abf8f	-0.15112136
118	0x3d9564f1	0.07294644
119	0x3c92419c	0.01785355
120	0xbd23c1bf	-0.039979693
121	0xbca5577b	-0.020183316
122	0x3c2a3b4c	0.010390114
123	0x3c80fda1	0.01574594
124	0x3d53159e	0.051534288
125	0x3e3fd678	0.18734157
126	0x3d59ed9f	0.05320513
127	0xbd54b70d	-0.051932383
128	0xbd4f1be3	-0.050563704
129	0x3d56a0ae	0.05239933
130	0xbd00d8a9	-0.031456623
131	0x3d62c7f8	0.055366486
132	0x3d494c79	0.049145196
133	0xbdc6c4c4	-0.09705499
134	0x3d070ddc	0.0329722
135	0x3e3d9fa1	0.18517925
136	0x3d3fd830	0.04683703
137	0x3c5a3cd6	0.0133201685
138	0xbdb4f2b5	-0.08835355
139	0x3db1d027	0.0868228
140	0x3cb2f5c4	0.021845706
141	0xbb81c939	-0.003960755
142	0x3da0914a	0.07840212
143	0x3c588e6f	0.013217553
144	0x3ba22229	0.00494792
145	0xbe10f235	-0.14154895
146	0x3d9a0434	0.07520333
147	0x3d9f9179	0.077914186
148	0x3d6d2c0d	0.05790334
149	0x3e3de6d2	0.18545082
150	0x3e12d2f7	0.14338289
151	0x3d263801	0.040580753
152	0x3c77b4e5	0.015118812
153	0x3df2a19e	0.11847232
154	0x3e274db3	0.16338234
155	0xbdf1523e	-0.117832646
156	0xbb836cba	-0.004010764
157	0x3e250312	0.16114452
158	0xbce01ad2	-0.027356539
159	0x3dac04e3	0.083993696
160	0x3e055e6c	0.130243
161	0xbd3f6a30	-0.046732128
162	0xbd351efa	-0.044218995
163	0x3daf76ad	0.085675575
164	0x3d93ba35	0.072132505
165	0x3d8b30c4	0.06796411
166	0xbb745160	-0.0037279949
167	0x3c77b019	0.015117669
168	0x3e363727	0.17794476
169	0x3dec55e3	0.11539819
170	0x3e985549	0.29752567
171	0xbd222637	-0.039587226
172	0xbd9d202a	-0.076721504
173	0x3d43abdc	0.04777132
174	0x3d119499	0.035542104
175	0xbe88afd5	-0.2669665
176	0xbd95ba21	-0.07310892
177	0xbd06a582	-0.032872684
178	0x3a84a9a6	0.001012136
179	0x3db2fa48	0.087391436
180	0x3de50146	0.111818835
181	0xbc3004d7	-0.010743341
182	0x3e1d7261	0.15375663
183	0x3e58c63e	0.21169373
184	0xbd352af9	-0.044230435
185	0x3a8354d5	0.0010019789
186	0xbd924900	-0.0714283
187	0x3db967a7	0.09052973
188	0x3da95eb6	0.08270018
189	0x3e178be0	0.14799452
190	0xbdb72146	-0.08941893
191	0x3e18aeb9	0.14910401
192	0x3e805bb3	0.2506996
193	0xbe1aa1fd	-0.15100856
194	0x3d28700d	0.041122485
195	0xbdf8f71c	-0.121565074
196	0xbe057f38	-0.13036811
197	0x3da8eeef	0.08248698
198	0x3bfc9a8a	0.007708852
199	0x3ddc0519	0.1074316
200	0xbd807ba9	-0.06273586
201	0x3b824504	0.0039755125
202	0x3d59787d	0.053093422
203	0xbd51cb31	-0.05121917
204	0xbd3245cf	-0.043523606
205	0xbdfcfefd	-0.12353323
206	0xbc174762	-0.009233328
207	0xbd0ebe9b	-0.034849744
208	0x3cd03531	0.025415989
209	0x3e479bfb	0.19493096
210	0xbc8b8916	-0.017033141
211	0x3d5aa129	0.05337635
212	0x3d62d191	0.05537564
213	0xbde36643	-0.11103489
214	0xbdd80c45	-0.10549215
215	0x3d87f773	0.06638994
216	0xba9205ac	-0.0011140606
217	0x3c776eab	0.015102069
218	0xbdf73ebd	-0.12072513
219	0x3e4b2786	0.19839296
220	0x3db27429	0.08713562
221	0xbcba4ae8	-0.022740796
222	0x3d3f2a5b	0.046671253
223	0x3d430411	0.0476113
224	0xbc45974c	-0.012059998
225	0xbd7c6502	-0.061619766
226	0x3d2ddaa0	0.042444825
227	0xbd245dab	-0.04012839
228	0x3d4c84c2	0.049931295
229	0xbd351045	-0.04420497
230	0xbde9ca33	-0.114155196
231	0x3d28b8eb	0.041191977
232	0x3d9047eb	0.07044967
233	0xbdb8e5dc	-0.09028217
234	0x3d8aeb7e	0.06783198
235	0x3db176f0	0.08665264
236	0x3dcc800e	0.09985362
237	0x3d137f62	0.036010154
238	0xbc8a66ab	-0.016894659
239	0xbd26c500	-0.040715218
240	0x3d74178f	0.05959278
241	0x3ea1179a	0.3146332
242	0xbda321c1	-0.079654224
243	0xbd073f7f	-0.03301954
244	0xbc10a273	-0.008827793
245	0xbe87957d	-0.26481238
246	0xbd77e0df	-0.06051719
247	0xbe01c811	-0.12673976
248	0x3d9b164f	0.075726144
249	0xbe081aea	-0.13291517
250	0xbdd710f4	-0.105012804
251	0xbdb86ca4	-0.090050966
252	0xbdfaed21	-0.1225226
253	0xba8487d5	-0.0010111282
254	0x3d5a1b1c	0.05324851
255	0x3cc97e8a	0.024596471

module.model.6.bias f4 [64]
0	0xbcc7a94b	-0.024372717
1	0xbbf6e889	-0.0075350446
2	0x3cd614fc	0.026133053
3	0xbdf6d297	-0.120518856
4	0x3d7af9b8	0.061273307
5	0x3d8a79b9	0.06761498
6	0xbd4367a9	-0.04770628
7	0x3a88c771	0.0010435415
8	0xbd09d3e7	-0.03364935
9	0xbd07ddb1	-0.033170406
10	0xbdafd8f7	-0.08586305
11	0x3dfa55b3	0.12223377
12	0xbd5531bf	-0.052049395
13	0x3ca7e895	0.020496646
14	0x3d1b3434	0.03789158
15	0x3cdc18e0	0.02686733
16	0xbd159159	-0.036515567
17	0xbcb88d53	-0.022528326
18	0x3dc24a2e	0.09486805
19	0xbe158a81	-0.14603616
20	0xbd7da517	-0.06192502
21	0xbabc8e58	-0.0014385683
22	0x3d7f7981	0.062371735
23	0xbd4e174c	-0.050315186
24	0xbdc39d40	-0.095514774
25	0xbd857fc3	-0.06518509
26	0xbd97b132	-0.07406844
27	0x3e059e1b	0.13048594
28	0x3db1f6f7	0.08689683
29	0x3d98aaf8	0.07454485
30	0x3dcad3d0	0.09903681
31	0x3d99175a	0.07475157
32	0x3da59d59	0.08086652
33	0xbc3847de	-0.011247603
34	0xbe44d709	-0.19222654
35	0x3d76e24e	0.060274415
36	0x3cbb41fd	0.022858614
37	0x3d57e462	0.052708037
38	0xbde74339	-0.112921186
39	0x3df34eb0	0.11880243
40	0x3e120ea6	0.142634
41	0xbdbe6b51	-0.09297813
42	0x3da76625	0.081737794
43	0x3da10930	0.078630805
44	0xbd69d760	-0.057090163
45	0x3dbc312a	0.09189065
46	0x3ddfd46a	0.10929187
47	0xbc8bdbf0	-0.017072648
48	0x3d6d54be	0.057942145
49	0xbdb52098	-0.088441074
50	0x3e01cccf	0.12675785
51	0xbcf4cb1b	-0.029882004
52	0xbd4531e4	-0.048143283
53	0x3d88f505	0.06687359
54	0x3d94ca93	0.072652005
55	0x3d8b6661	0.068066366
56	0xbe0ab115	-0.13544114
57	0x3a882e60	0.0010389797
58	0xbbadaa96	-0.0052998764
59	0x3dd04d5c	0.10171005
60	0x3d79de02	0.06100274
61	0xbd15bda4	-0.03655781
62	0xbc0ae4b4	-0.008477379
63	0x3b98d435	0.004663969

module.model.7.weight f4 [64]
0	0x3f2c0627	0.6719689
1	0x3f72c534	0.9483216
2	0x3f226a12	0.634431
3	0x3f62ffc0	0.88671494
4	0x3f243db5	0.6415666
5	0x3f60b3de	0.87774456
6	0x3f86f5b6	1.0543735
7	0x3f0c64a9	0.54841095
8	0x3f425b27	0.7592034
9	0x3f28fbcd	0.6600922
10	0x3ef4d625	0.4781963
11	0x3f9e57a5	1.2370497
12	0x3f8565bb	1.0421671
13	0x3f10c0fd	0.56544477
14	0x3f465ea6	0.7748817
15	0x3f1e4804	0.6182864
16	0x3f3f27f0	0.74670315
17	0x3f7ee730	0.99571514
18	0x3f3aa8f5	0.7291406
19	0x3f36d9c4	0.71426034
20	0x3f82eb64	1.0228086
21	0x3f5f8cdf	0.8732433
22	0x3f91779a	1.1364625
23	0x3f46a6ea	0.7759844
24	0x3f03a2ce	0.51420295
25	0x3f841a1f	1.0320472
26	0x3f3a5147	0.7278027
27	0x3f3d6017	0.73974746
28	0x3f7eccea	0.99531424
29	0x3f564abe	0.837078
30	0x3f5ea45a	0.8696953
31	0x3f5c0cf8	0.8595729
32	0x3f503732	0.8133422
33	0x3f376fed	0.7165516
34	0x3f47da38	0.7806735
35	0x3f3e857b	0.74422425
36	0x3f5c065b	0.859472
37	0x3f5ea6fb	0.8697354
38	0x3f3c52ba	0.7356373
39	0x3f18b8a4	0.5965674
40	0x3f478472	0.7793647
41	0x3f3bb6a9	0.7332559
42	0x3f41a940	0.7564888
43	0x3f20214b	0.625508
44	0x3f57a0db	0.8422982
45	0x3f6dfa55	0.929601
46	0x3f586d98	0.84542227
47	0x3f33f842	0.70300686
48	0x3f4f1912	0.8089763
49	0x3f17e874	0.5933907
50	0x3f2c3f7b	0.67284364
51	0x3f43a0ce	0.76417243
52	0x3f4fa50c	0.81111217
53	0x3f2a7cae	0.66596496
54	0x3f15f0ad	0.5857037
55	0x3f255f6c	0.6459873
56	0x3f43a1af	0.76418585
57	0x3f55f69d	0.83579427
58	0x3f4da3f3	0.8032829
59	0x3f4e4732	0.80577385
60	0x3f78462f	0.9698209
61	0x3f1afda9	0.60543305
62	0x3f871573	1.0553421
63	0x3f46c868	0.77649546

module.model.7.bias f4 [64]
0	0xbeb8ae3e	-0.36070436
1	0xbd62d071	-0.055374566
2	0xbe51bb43	-0.20481591
3	0xbb0e7c68	-0.0021741632
4	0xbe20e9c9	-0.15714182
5	0xbdca690c	-0.09883317
6	0x3edc2701	0.42998508
7	0xbe7adc72	-0.24498156
8	0xbe1b9bf8	-0.15196216
9	0xbe3bb09f	-0.18329094
10	0xbecf81c9	-0.40528706
11	0x3eee2b2b	0.4651731
12	0x3dc790f5	0.09744445
13	0xbe307dae	-0.17235443
14	0xbe092151	-0.13391615
15	0xbe7fed45	-0.24992855
16	0xbe30c8fb	-0.17264168
17	0x3e15066f	0.14553235
18	0xbdd21e33	-0.10259666
19	0xbe30c186	-0.17261323
20	0x3d2bffbc	0.041991934
21	0x3d721deb	0.059110563
22	0x3f27a332	0.6548339
23	0xbe2099cb	-0.15683667
24	0xbec9f4c7	-0.39444563
25	0x3d350734	0.044196323
26	0x3aad7e8d	0.0013236568
27	0xbe543018	-0.20721471
28	0x3cd66013	0.026168859
29	0xbdd31234	-0.10306206
30	0xbe003fe8	-0.12524378
31	0xbd42067a	-0.047369458
32	0xbd62966d	-0.05531924
33	0xbe1b8d3c	-0.15190595
34	0xbdff7ca6	-0.12474947
35	0xbd90f932	-0.0707878
36	0xbe84b142	-0.25916487
37	0xbd0b04f5	-0.033940274
38	0xbdd41d49	-0.10357148
39	0xbe452f78	-0.19256389
40	0xbd7206bf	-0.059088465
41	0xbe2da5c7	-0.1695777
42	0xbe4080e2	-0.18799165
43	0xbe72cfb3	-0.23712043
44	0xbd9038cd	-0.07042084
45	0xbd6c1dcc	-0.057645604
46	0x3c2915fb	0.010320182
47	0xbe05bed9	-0.13061084
48	0xbe2227f9	-0.15835561
49	0xbe0462a1	-0.12928249
50	0xbdfc442a	-0.12317689
51	0xbd86885c	-0.06568977
52	0xbdb252a6	-0.0870717
53	0xbe17ed52	-0.14836624
54	0xbe353bbd	-0.1769857
55	0xbe4322dd	-0.19056268
56	0xbe0b93b1	-0.13630559
57	0xbcbe6b2c	-0.023244463
58	0xbdb5493a	-0.088518575
59	0xbd9c9f48	-0.07647568
60	0xbd12d129	-0.035844002
61	0xbe913afe	-0.2836532
62	0x3e6c59bf	0.2308111
63	0xbe0810ae	-0.13287613

module.model.7.running_mean f4 [64]
0	0xbf576d33	-0.84151
1	0x3d445875	0.04793592
2	0x3f5c19ba	0.85976756
3	0xbe042df6	-0.12908158
4	0xbcb57e7b	-0.022155037
5	0xbe835dd0	-0.2565751
6	0xbdce2bc4	-0.100669414
7	0xbe5de04e	-0.21667597
8	0xbea00011	-0.3125005
9	0xbe2c544e	-0.16829035
10	0x3e1505ad	0.14552946
11	0x3dcb89d1	0.09938396
12	0xbe61270c	-0.21987551
13	0xbd459620	-0.048238873
14	0x3efa7135	0.48914495
15	0xbe93f347	-0.28896543
16	0xbe6afb95	-0.22947533
17	0xbe5d743d	-0.21626373
18	0xbf957788	-1.1677103
19	0xbf3b8cfb	-0.73261994
20	0xbeafbe08	-0.3432467
21	0xbe9d7928	-0.30756497
22	0xbc7c12fa	-0.015385384
23	0xbf42b3a5	-0.76055366
24	0xbd991d23	-0.074762605
25	0xbf2bf3c0	-0.6716881
26	0xbe60dcf8	-0.21959293
27	0xbe10131c	-0.1406979
28	0xbde33a18	-0.11095065
29	0xbf0f728b	-0.56034154
30	0xbb8d96f6	-0.0043209745
31	0xbee3ad83	-0.44468316
32	0x3e136ad4	0.1439622
33	0x3e1a116f	0.15045713
34	0xbf83fa7c	-1.0310817
35	0xbe07e5b7	-0.13271223
36	0xbe953f5d	-0.29149905
37	0xbeed88c3	-0.46393403
38	0x3e62333b	0.22089855
39	0xbecb3aab	-0.39693198
40	0xbe677404	-0.2260285
41	0xbf2d108f	-0.6760339
42	0x3d2297ab	0.039695423
43	0xbefb12ae	-0.4903769
44	0x3dce9996	0.10087888
45	0x3ea2fbb5	0.31832662
46	0xbf1fbf29	-0.6240106
47	0xbe273a4e	-0.16330835
48	0x3dbc03de	0.09180425
49	0x3e593c1a	0.21214333
50	0xbf3399ce	-0.7015656
51	0x3e518117	0.204594
52	0xbd8ee9d6	-0.069781944
53	0x3d8a4208	0.06750876
54	0xbf090c7c	-0.53534675
55	0xbf44a59f	-0.7681522
56	0xbe80d346	-0.2516119
57	0xbf12f815	-0.57409793
58	0xbf264085	-0.649422
59	0xbe95511d	-0.29163447
60	0x3e20aefe	0.15691754
61	0x3e12d6a2	0.14339688
62	0xbd8f66da	-0.07002039
63	0xbeec4e61	-0.46153548

module.model.7.running_var f4 [64]
0	0x3f12d196	0.5735105
1	0x3f8b3a46	1.0877159
2	0x3f88c42d	1.0684868
3	0x3f4feddc	0.8122232
4	0x3f2aa453	0.6665699
5	0x3fa6d89e	1.3034856
6	0x3d3c6360	0.04599321
7	0x3f819a37	1.0125188
8	0x3f822042	1.0166094
9	0x3f82e8ba	1.0227273
10	0x3f87635a	1.0577195
11	0x3d89406c	0.067017406
12	0x3e22bda7	0.15892659
13	0x3f417fb6	0.75585496
14	0x3f9785ec	1.1837745
15	0x3facba08	1.3494272
16	0x3f82ebc0	1.0228195
17	0x3e33ffb8	0.17578018
18	0x3f8cfd74	1.1014848
19	0x3f6ff8e4	0.9373915
20	0x3f26d866	0.6517395
21	0x3f65e6da	0.89805377
22	0x3d223711	0.039603297
23	0x3f81e7fa	1.0148919
24	0x3f4df785	0.8045581
25	0x3f8f1c47	1.1180505
26	0x3f9e7220	1.2378578
27	0x3f26d9f9	0.6517635
28	0x3f7b8ecd	0.9826477
29	0x3f1b5cca	0.6068846
30	0x3f5ee256	0.8706411
31	0x3f1dc37c	0.6162641
32	0x3f4d5fb5	0.8022416
33	0x3f593b04	0.84855676
34	0x3f47b322	0.7800771
35	0x3f9ccc58	1.2249861
36	0x3f00fca7	0.50385517
37	0x3f4638ec	0.77430606
38	0x3f896ec7	1.0736932
39	0x3f0dfbf1	0.5546256
40	0x3fada7c8	1.3566828
41	0x3f9e91bc	1.2388225
42	0x3e9c9733	0.30584106
43	0x3f53c643	0.827244
44	0x3f6b94ea	0.920241
45	0x3f5c45ce	0.86044014
46	0x3edd0787	0.43169805
47	0x3f653f6d	0.89549905
48	0x3f1db5a7	0.61605304
49	0x3f77d10c	0.96803355
50	0x3f72d577	0.9485697
51	0x3f72cb6b	0.9484164
52	0x3fa223c0	1.266716
53	0x3f3cb207	0.7370915
54	0x3fa822da	1.3135636
55	0x3fa93e5f	1.3222159
56	0x3f7afbf0	0.98040676
57	0x3fffa8d0	1.9973392
58	0x3f61e3f5	0.8823846
59	0x3f50a87e	0.815071
60	0x3f9c0632	1.2189391
61	0x3fa0abca	1.2552426
62	0x3daa38a7	0.08311587
63	0x3f92b905	1.1462713
